{"class_name": "Model", "config": {"name": "model_1", "layers": [{"name": "input_6", "class_name": "InputLayer", "config": {"batch_input_shape": [null, 299, 299, 3], "dtype": "float32", "sparse": false, "name": "input_6"}, "inbound_nodes": []}, {"name": "conv2d_470", "class_name": "Conv2D", "config": {"name": "conv2d_470", "trainable": false, "dtype": "float32", "filters": 32, "kernel_size": [3, 3], "strides": [2, 2], "padding": "valid", "data_format": "channels_last", "dilation_rate": [1, 1], "activation": "linear", "use_bias": false, "kernel_initializer": {"class_name": "GlorotUniform", "config": {"seed": null}}, "bias_initializer": {"class_name": "Zeros", "config": {}}, "kernel_regularizer": null, "bias_regularizer": null, "activity_regularizer": null, "kernel_constraint": null, "bias_constraint": null}, "inbound_nodes": [["input_6", 0, 0, {}]]}, {"name": "batch_normalization_v1_470", "class_name": "BatchNormalizationV1", "config": {"name": "batch_normalization_v1_470", "trainable": false, "dtype": "float32", "axis": [3], "momentum": 0.99, "epsilon": 0.001, "center": true, "scale": false, "beta_initializer": {"class_name": "Zeros", "config": {}}, "gamma_initializer": {"class_name": "Ones", "config": {}}, "moving_mean_initializer": {"class_name": "Zeros", "config": {}}, "moving_variance_initializer": {"class_name": "Ones", "config": {}}, "beta_regularizer": null, "gamma_regularizer": null, "beta_constraint": null, "gamma_constraint": null}, "inbound_nodes": [["conv2d_470", 0, 0, {}]]}, {"name": "activation_470", "class_name": "Activation", "config": {"name": "activation_470", "trainable": false, "dtype": "float32", "activation": "relu"}, "inbound_nodes": [["batch_normalization_v1_470", 0, 0, {}]]}, {"name": "conv2d_471", "class_name": "Conv2D", "config": {"name": "conv2d_471", "trainable": false, "dtype": "float32", "filters": 32, "kernel_size": [3, 3], "strides": [1, 1], "padding": "valid", "data_format": "channels_last", "dilation_rate": [1, 1], "activation": "linear", "use_bias": false, "kernel_initializer": {"class_name": "GlorotUniform", "config": {"seed": null}}, "bias_initializer": {"class_name": "Zeros", "config": {}}, "kernel_regularizer": null, "bias_regularizer": null, "activity_regularizer": null, "kernel_constraint": null, "bias_constraint": null}, "inbound_nodes": [["activation_470", 0, 0, {}]]}, {"name": "batch_normalization_v1_471", "class_name": "BatchNormalizationV1", "config": {"name": "batch_normalization_v1_471", "trainable": false, "dtype": "float32", "axis": [3], "momentum": 0.99, "epsilon": 0.001, "center": true, "scale": false, "beta_initializer": {"class_name": "Zeros", "config": {}}, "gamma_initializer": {"class_name": "Ones", "config": {}}, "moving_mean_initializer": {"class_name": "Zeros", "config": {}}, "moving_variance_initializer": {"class_name": "Ones", "config": {}}, "beta_regularizer": null, "gamma_regularizer": null, "beta_constraint": null, "gamma_constraint": null}, "inbound_nodes": [["conv2d_471", 0, 0, {}]]}, {"name": "activation_471", "class_name": "Activation", "config": {"name": "activation_471", "trainable": false, "dtype": "float32", "activation": "relu"}, "inbound_nodes": [["batch_normalization_v1_471", 0, 0, {}]]}, {"name": "conv2d_472", "class_name": "Conv2D", "config": {"name": "conv2d_472", "trainable": false, "dtype": "float32", "filters": 64, "kernel_size": [3, 3], "strides": [1, 1], "padding": "same", "data_format": "channels_last", "dilation_rate": [1, 1], "activation": "linear", "use_bias": false, "kernel_initializer": {"class_name": "GlorotUniform", "config": {"seed": null}}, "bias_initializer": {"class_name": "Zeros", "config": {}}, "kernel_regularizer": null, "bias_regularizer": null, "activity_regularizer": null, "kernel_constraint": null, "bias_constraint": null}, "inbound_nodes": [["activation_471", 0, 0, {}]]}, {"name": "batch_normalization_v1_472", "class_name": "BatchNormalizationV1", "config": {"name": "batch_normalization_v1_472", "trainable": false, "dtype": "float32", "axis": [3], "momentum": 0.99, "epsilon": 0.001, "center": true, "scale": false, "beta_initializer": {"class_name": "Zeros", "config": {}}, "gamma_initializer": {"class_name": "Ones", "config": {}}, "moving_mean_initializer": {"class_name": "Zeros", "config": {}}, "moving_variance_initializer": {"class_name": "Ones", "config": {}}, "beta_regularizer": null, "gamma_regularizer": null, "beta_constraint": null, "gamma_constraint": null}, "inbound_nodes": [["conv2d_472", 0, 0, {}]]}, {"name": "activation_472", "class_name": "Activation", "config": {"name": "activation_472", "trainable": false, "dtype": "float32", "activation": "relu"}, "inbound_nodes": [["batch_normalization_v1_472", 0, 0, {}]]}, {"name": "max_pooling2d_20", "class_name": "MaxPooling2D", "config": {"name": "max_pooling2d_20", "trainable": false, "dtype": "float32", "pool_size": [3, 3], "padding": "valid", "strides": [2, 2], "data_format": "channels_last"}, "inbound_nodes": [["activation_472", 0, 0, {}]]}, {"name": "conv2d_473", "class_name": "Conv2D", "config": {"name": "conv2d_473", "trainable": false, "dtype": "float32", "filters": 80, "kernel_size": [1, 1], "strides": [1, 1], "padding": "valid", "data_format": "channels_last", "dilation_rate": [1, 1], "activation": "linear", "use_bias": false, "kernel_initializer": {"class_name": "GlorotUniform", "config": {"seed": null}}, "bias_initializer": {"class_name": "Zeros", "config": {}}, "kernel_regularizer": null, "bias_regularizer": null, "activity_regularizer": null, "kernel_constraint": null, "bias_constraint": null}, "inbound_nodes": [["max_pooling2d_20", 0, 0, {}]]}, {"name": "batch_normalization_v1_473", "class_name": "BatchNormalizationV1", "config": {"name": "batch_normalization_v1_473", "trainable": false, "dtype": "float32", "axis": [3], "momentum": 0.99, "epsilon": 0.001, "center": true, "scale": false, "beta_initializer": {"class_name": "Zeros", "config": {}}, "gamma_initializer": {"class_name": "Ones", "config": {}}, "moving_mean_initializer": {"class_name": "Zeros", "config": {}}, "moving_variance_initializer": {"class_name": "Ones", "config": {}}, "beta_regularizer": null, "gamma_regularizer": null, "beta_constraint": null, "gamma_constraint": null}, "inbound_nodes": [["conv2d_473", 0, 0, {}]]}, {"name": "activation_473", "class_name": "Activation", "config": {"name": "activation_473", "trainable": false, "dtype": "float32", "activation": "relu"}, "inbound_nodes": [["batch_normalization_v1_473", 0, 0, {}]]}, {"name": "conv2d_474", "class_name": "Conv2D", "config": {"name": "conv2d_474", "trainable": false, "dtype": "float32", "filters": 192, "kernel_size": [3, 3], "strides": [1, 1], "padding": "valid", "data_format": "channels_last", "dilation_rate": [1, 1], "activation": "linear", "use_bias": false, "kernel_initializer": {"class_name": "GlorotUniform", "config": {"seed": null}}, "bias_initializer": {"class_name": "Zeros", "config": {}}, "kernel_regularizer": null, "bias_regularizer": null, "activity_regularizer": null, "kernel_constraint": null, "bias_constraint": null}, "inbound_nodes": [["activation_473", 0, 0, {}]]}, {"name": "batch_normalization_v1_474", "class_name": "BatchNormalizationV1", "config": {"name": "batch_normalization_v1_474", "trainable": false, "dtype": "float32", "axis": [3], "momentum": 0.99, "epsilon": 0.001, "center": true, "scale": false, "beta_initializer": {"class_name": "Zeros", "config": {}}, "gamma_initializer": {"class_name": "Ones", "config": {}}, "moving_mean_initializer": {"class_name": "Zeros", "config": {}}, "moving_variance_initializer": {"class_name": "Ones", "config": {}}, "beta_regularizer": null, "gamma_regularizer": null, "beta_constraint": null, "gamma_constraint": null}, "inbound_nodes": [["conv2d_474", 0, 0, {}]]}, {"name": "activation_474", "class_name": "Activation", "config": {"name": "activation_474", "trainable": false, "dtype": "float32", "activation": "relu"}, "inbound_nodes": [["batch_normalization_v1_474", 0, 0, {}]]}, {"name": "max_pooling2d_21", "class_name": "MaxPooling2D", "config": {"name": "max_pooling2d_21", "trainable": false, "dtype": "float32", "pool_size": [3, 3], "padding": "valid", "strides": [2, 2], "data_format": "channels_last"}, "inbound_nodes": [["activation_474", 0, 0, {}]]}, {"name": "conv2d_478", "class_name": "Conv2D", "config": {"name": "conv2d_478", "trainable": false, "dtype": "float32", "filters": 64, "kernel_size": [1, 1], "strides": [1, 1], "padding": "same", "data_format": "channels_last", "dilation_rate": [1, 1], "activation": "linear", "use_bias": false, "kernel_initializer": {"class_name": "GlorotUniform", "config": {"seed": null}}, "bias_initializer": {"class_name": "Zeros", "config": {}}, "kernel_regularizer": null, "bias_regularizer": null, "activity_regularizer": null, "kernel_constraint": null, "bias_constraint": null}, "inbound_nodes": [["max_pooling2d_21", 0, 0, {}]]}, {"name": "batch_normalization_v1_478", "class_name": "BatchNormalizationV1", "config": {"name": "batch_normalization_v1_478", "trainable": false, "dtype": "float32", "axis": [3], "momentum": 0.99, "epsilon": 0.001, "center": true, "scale": false, "beta_initializer": {"class_name": "Zeros", "config": {}}, "gamma_initializer": {"class_name": "Ones", "config": {}}, "moving_mean_initializer": {"class_name": "Zeros", "config": {}}, "moving_variance_initializer": {"class_name": "Ones", "config": {}}, "beta_regularizer": null, "gamma_regularizer": null, "beta_constraint": null, "gamma_constraint": null}, "inbound_nodes": [["conv2d_478", 0, 0, {}]]}, {"name": "activation_478", "class_name": "Activation", "config": {"name": "activation_478", "trainable": false, "dtype": "float32", "activation": "relu"}, "inbound_nodes": [["batch_normalization_v1_478", 0, 0, {}]]}, {"name": "conv2d_476", "class_name": "Conv2D", "config": {"name": "conv2d_476", "trainable": false, "dtype": "float32", "filters": 48, "kernel_size": [1, 1], "strides": [1, 1], "padding": "same", "data_format": "channels_last", "dilation_rate": [1, 1], "activation": "linear", "use_bias": false, "kernel_initializer": {"class_name": "GlorotUniform", "config": {"seed": null}}, "bias_initializer": {"class_name": "Zeros", "config": {}}, "kernel_regularizer": null, "bias_regularizer": null, "activity_regularizer": null, "kernel_constraint": null, "bias_constraint": null}, "inbound_nodes": [["max_pooling2d_21", 0, 0, {}]]}, {"name": "conv2d_479", "class_name": "Conv2D", "config": {"name": "conv2d_479", "trainable": false, "dtype": "float32", "filters": 96, "kernel_size": [3, 3], "strides": [1, 1], "padding": "same", "data_format": "channels_last", "dilation_rate": [1, 1], "activation": "linear", "use_bias": false, "kernel_initializer": {"class_name": "GlorotUniform", "config": {"seed": null}}, "bias_initializer": {"class_name": "Zeros", "config": {}}, "kernel_regularizer": null, "bias_regularizer": null, "activity_regularizer": null, "kernel_constraint": null, "bias_constraint": null}, "inbound_nodes": [["activation_478", 0, 0, {}]]}, {"name": "batch_normalization_v1_476", "class_name": "BatchNormalizationV1", "config": {"name": "batch_normalization_v1_476", "trainable": false, "dtype": "float32", "axis": [3], "momentum": 0.99, "epsilon": 0.001, "center": true, "scale": false, "beta_initializer": {"class_name": "Zeros", "config": {}}, "gamma_initializer": {"class_name": "Ones", "config": {}}, "moving_mean_initializer": {"class_name": "Zeros", "config": {}}, "moving_variance_initializer": {"class_name": "Ones", "config": {}}, "beta_regularizer": null, "gamma_regularizer": null, "beta_constraint": null, "gamma_constraint": null}, "inbound_nodes": [["conv2d_476", 0, 0, {}]]}, {"name": "batch_normalization_v1_479", "class_name": "BatchNormalizationV1", "config": {"name": "batch_normalization_v1_479", "trainable": false, "dtype": "float32", "axis": [3], "momentum": 0.99, "epsilon": 0.001, "center": true, "scale": false, "beta_initializer": {"class_name": "Zeros", "config": {}}, "gamma_initializer": {"class_name": "Ones", "config": {}}, "moving_mean_initializer": {"class_name": "Zeros", "config": {}}, "moving_variance_initializer": {"class_name": "Ones", "config": {}}, "beta_regularizer": null, "gamma_regularizer": null, "beta_constraint": null, "gamma_constraint": null}, "inbound_nodes": [["conv2d_479", 0, 0, {}]]}, {"name": "activation_476", "class_name": "Activation", "config": {"name": "activation_476", "trainable": false, "dtype": "float32", "activation": "relu"}, "inbound_nodes": [["batch_normalization_v1_476", 0, 0, {}]]}, {"name": "activation_479", "class_name": "Activation", "config": {"name": "activation_479", "trainable": false, "dtype": "float32", "activation": "relu"}, "inbound_nodes": [["batch_normalization_v1_479", 0, 0, {}]]}, {"name": "average_pooling2d_45", "class_name": "AveragePooling2D", "config": {"name": "average_pooling2d_45", "trainable": false, "dtype": "float32", "pool_size": [3, 3], "padding": "same", "strides": [1, 1], "data_format": "channels_last"}, "inbound_nodes": [["max_pooling2d_21", 0, 0, {}]]}, {"name": "conv2d_475", "class_name": "Conv2D", "config": {"name": "conv2d_475", "trainable": false, "dtype": "float32", "filters": 64, "kernel_size": [1, 1], "strides": [1, 1], "padding": "same", "data_format": "channels_last", "dilation_rate": [1, 1], "activation": "linear", "use_bias": false, "kernel_initializer": {"class_name": "GlorotUniform", "config": {"seed": null}}, "bias_initializer": {"class_name": "Zeros", "config": {}}, "kernel_regularizer": null, "bias_regularizer": null, "activity_regularizer": null, "kernel_constraint": null, "bias_constraint": null}, "inbound_nodes": [["max_pooling2d_21", 0, 0, {}]]}, {"name": "conv2d_477", "class_name": "Conv2D", "config": {"name": "conv2d_477", "trainable": false, "dtype": "float32", "filters": 64, "kernel_size": [5, 5], "strides": [1, 1], "padding": "same", "data_format": "channels_last", "dilation_rate": [1, 1], "activation": "linear", "use_bias": false, "kernel_initializer": {"class_name": "GlorotUniform", "config": {"seed": null}}, "bias_initializer": {"class_name": "Zeros", "config": {}}, "kernel_regularizer": null, "bias_regularizer": null, "activity_regularizer": null, "kernel_constraint": null, "bias_constraint": null}, "inbound_nodes": [["activation_476", 0, 0, {}]]}, {"name": "conv2d_480", "class_name": "Conv2D", "config": {"name": "conv2d_480", "trainable": false, "dtype": "float32", "filters": 96, "kernel_size": [3, 3], "strides": [1, 1], "padding": "same", "data_format": "channels_last", "dilation_rate": [1, 1], "activation": "linear", "use_bias": false, "kernel_initializer": {"class_name": "GlorotUniform", "config": {"seed": null}}, "bias_initializer": {"class_name": "Zeros", "config": {}}, "kernel_regularizer": null, "bias_regularizer": null, "activity_regularizer": null, "kernel_constraint": null, "bias_constraint": null}, "inbound_nodes": [["activation_479", 0, 0, {}]]}, {"name": "conv2d_481", "class_name": "Conv2D", "config": {"name": "conv2d_481", "trainable": false, "dtype": "float32", "filters": 32, "kernel_size": [1, 1], "strides": [1, 1], "padding": "same", "data_format": "channels_last", "dilation_rate": [1, 1], "activation": "linear", "use_bias": false, "kernel_initializer": {"class_name": "GlorotUniform", "config": {"seed": null}}, "bias_initializer": {"class_name": "Zeros", "config": {}}, "kernel_regularizer": null, "bias_regularizer": null, "activity_regularizer": null, "kernel_constraint": null, "bias_constraint": null}, "inbound_nodes": [["average_pooling2d_45", 0, 0, {}]]}, {"name": "batch_normalization_v1_475", "class_name": "BatchNormalizationV1", "config": {"name": "batch_normalization_v1_475", "trainable": false, "dtype": "float32", "axis": [3], "momentum": 0.99, "epsilon": 0.001, "center": true, "scale": false, "beta_initializer": {"class_name": "Zeros", "config": {}}, "gamma_initializer": {"class_name": "Ones", "config": {}}, "moving_mean_initializer": {"class_name": "Zeros", "config": {}}, "moving_variance_initializer": {"class_name": "Ones", "config": {}}, "beta_regularizer": null, "gamma_regularizer": null, "beta_constraint": null, "gamma_constraint": null}, "inbound_nodes": [["conv2d_475", 0, 0, {}]]}, {"name": "batch_normalization_v1_477", "class_name": "BatchNormalizationV1", "config": {"name": "batch_normalization_v1_477", "trainable": false, "dtype": "float32", "axis": [3], "momentum": 0.99, "epsilon": 0.001, "center": true, "scale": false, "beta_initializer": {"class_name": "Zeros", "config": {}}, "gamma_initializer": {"class_name": "Ones", "config": {}}, "moving_mean_initializer": {"class_name": "Zeros", "config": {}}, "moving_variance_initializer": {"class_name": "Ones", "config": {}}, "beta_regularizer": null, "gamma_regularizer": null, "beta_constraint": null, "gamma_constraint": null}, "inbound_nodes": [["conv2d_477", 0, 0, {}]]}, {"name": "batch_normalization_v1_480", "class_name": "BatchNormalizationV1", "config": {"name": "batch_normalization_v1_480", "trainable": false, "dtype": "float32", "axis": [3], "momentum": 0.99, "epsilon": 0.001, "center": true, "scale": false, "beta_initializer": {"class_name": "Zeros", "config": {}}, "gamma_initializer": {"class_name": "Ones", "config": {}}, "moving_mean_initializer": {"class_name": "Zeros", "config": {}}, "moving_variance_initializer": {"class_name": "Ones", "config": {}}, "beta_regularizer": null, "gamma_regularizer": null, "beta_constraint": null, "gamma_constraint": null}, "inbound_nodes": [["conv2d_480", 0, 0, {}]]}, {"name": "batch_normalization_v1_481", "class_name": "BatchNormalizationV1", "config": {"name": "batch_normalization_v1_481", "trainable": false, "dtype": "float32", "axis": [3], "momentum": 0.99, "epsilon": 0.001, "center": true, "scale": false, "beta_initializer": {"class_name": "Zeros", "config": {}}, "gamma_initializer": {"class_name": "Ones", "config": {}}, "moving_mean_initializer": {"class_name": "Zeros", "config": {}}, "moving_variance_initializer": {"class_name": "Ones", "config": {}}, "beta_regularizer": null, "gamma_regularizer": null, "beta_constraint": null, "gamma_constraint": null}, "inbound_nodes": [["conv2d_481", 0, 0, {}]]}, {"name": "activation_475", "class_name": "Activation", "config": {"name": "activation_475", "trainable": false, "dtype": "float32", "activation": "relu"}, "inbound_nodes": [["batch_normalization_v1_475", 0, 0, {}]]}, {"name": "activation_477", "class_name": "Activation", "config": {"name": "activation_477", "trainable": false, "dtype": "float32", "activation": "relu"}, "inbound_nodes": [["batch_normalization_v1_477", 0, 0, {}]]}, {"name": "activation_480", "class_name": "Activation", "config": {"name": "activation_480", "trainable": false, "dtype": "float32", "activation": "relu"}, "inbound_nodes": [["batch_normalization_v1_480", 0, 0, {}]]}, {"name": "activation_481", "class_name": "Activation", "config": {"name": "activation_481", "trainable": false, "dtype": "float32", "activation": "relu"}, "inbound_nodes": [["batch_normalization_v1_481", 0, 0, {}]]}, {"name": "mixed0", "class_name": "Concatenate", "config": {"name": "mixed0", "trainable": false, "dtype": "float32", "axis": 3}, "inbound_nodes": [[["activation_475", 0, 0, {}], ["activation_477", 0, 0, {}], ["activation_480", 0, 0, {}], ["activation_481", 0, 0, {}]]]}, {"name": "conv2d_485", "class_name": "Conv2D", "config": {"name": "conv2d_485", "trainable": false, "dtype": "float32", "filters": 64, "kernel_size": [1, 1], "strides": [1, 1], "padding": "same", "data_format": "channels_last", "dilation_rate": [1, 1], "activation": "linear", "use_bias": false, "kernel_initializer": {"class_name": "GlorotUniform", "config": {"seed": null}}, "bias_initializer": {"class_name": "Zeros", "config": {}}, "kernel_regularizer": null, "bias_regularizer": null, "activity_regularizer": null, "kernel_constraint": null, "bias_constraint": null}, "inbound_nodes": [["mixed0", 0, 0, {}]]}, {"name": "batch_normalization_v1_485", "class_name": "BatchNormalizationV1", "config": {"name": "batch_normalization_v1_485", "trainable": false, "dtype": "float32", "axis": [3], "momentum": 0.99, "epsilon": 0.001, "center": true, "scale": false, "beta_initializer": {"class_name": "Zeros", "config": {}}, "gamma_initializer": {"class_name": "Ones", "config": {}}, "moving_mean_initializer": {"class_name": "Zeros", "config": {}}, "moving_variance_initializer": {"class_name": "Ones", "config": {}}, "beta_regularizer": null, "gamma_regularizer": null, "beta_constraint": null, "gamma_constraint": null}, "inbound_nodes": [["conv2d_485", 0, 0, {}]]}, {"name": "activation_485", "class_name": "Activation", "config": {"name": "activation_485", "trainable": false, "dtype": "float32", "activation": "relu"}, "inbound_nodes": [["batch_normalization_v1_485", 0, 0, {}]]}, {"name": "conv2d_483", "class_name": "Conv2D", "config": {"name": "conv2d_483", "trainable": false, "dtype": "float32", "filters": 48, "kernel_size": [1, 1], "strides": [1, 1], "padding": "same", "data_format": "channels_last", "dilation_rate": [1, 1], "activation": "linear", "use_bias": false, "kernel_initializer": {"class_name": "GlorotUniform", "config": {"seed": null}}, "bias_initializer": {"class_name": "Zeros", "config": {}}, "kernel_regularizer": null, "bias_regularizer": null, "activity_regularizer": null, "kernel_constraint": null, "bias_constraint": null}, "inbound_nodes": [["mixed0", 0, 0, {}]]}, {"name": "conv2d_486", "class_name": "Conv2D", "config": {"name": "conv2d_486", "trainable": false, "dtype": "float32", "filters": 96, "kernel_size": [3, 3], "strides": [1, 1], "padding": "same", "data_format": "channels_last", "dilation_rate": [1, 1], "activation": "linear", "use_bias": false, "kernel_initializer": {"class_name": "GlorotUniform", "config": {"seed": null}}, "bias_initializer": {"class_name": "Zeros", "config": {}}, "kernel_regularizer": null, "bias_regularizer": null, "activity_regularizer": null, "kernel_constraint": null, "bias_constraint": null}, "inbound_nodes": [["activation_485", 0, 0, {}]]}, {"name": "batch_normalization_v1_483", "class_name": "BatchNormalizationV1", "config": {"name": "batch_normalization_v1_483", "trainable": false, "dtype": "float32", "axis": [3], "momentum": 0.99, "epsilon": 0.001, "center": true, "scale": false, "beta_initializer": {"class_name": "Zeros", "config": {}}, "gamma_initializer": {"class_name": "Ones", "config": {}}, "moving_mean_initializer": {"class_name": "Zeros", "config": {}}, "moving_variance_initializer": {"class_name": "Ones", "config": {}}, "beta_regularizer": null, "gamma_regularizer": null, "beta_constraint": null, "gamma_constraint": null}, "inbound_nodes": [["conv2d_483", 0, 0, {}]]}, {"name": "batch_normalization_v1_486", "class_name": "BatchNormalizationV1", "config": {"name": "batch_normalization_v1_486", "trainable": false, "dtype": "float32", "axis": [3], "momentum": 0.99, "epsilon": 0.001, "center": true, "scale": false, "beta_initializer": {"class_name": "Zeros", "config": {}}, "gamma_initializer": {"class_name": "Ones", "config": {}}, "moving_mean_initializer": {"class_name": "Zeros", "config": {}}, "moving_variance_initializer": {"class_name": "Ones", "config": {}}, "beta_regularizer": null, "gamma_regularizer": null, "beta_constraint": null, "gamma_constraint": null}, "inbound_nodes": [["conv2d_486", 0, 0, {}]]}, {"name": "activation_483", "class_name": "Activation", "config": {"name": "activation_483", "trainable": false, "dtype": "float32", "activation": "relu"}, "inbound_nodes": [["batch_normalization_v1_483", 0, 0, {}]]}, {"name": "activation_486", "class_name": "Activation", "config": {"name": "activation_486", "trainable": false, "dtype": "float32", "activation": "relu"}, "inbound_nodes": [["batch_normalization_v1_486", 0, 0, {}]]}, {"name": "average_pooling2d_46", "class_name": "AveragePooling2D", "config": {"name": "average_pooling2d_46", "trainable": false, "dtype": "float32", "pool_size": [3, 3], "padding": "same", "strides": [1, 1], "data_format": "channels_last"}, "inbound_nodes": [["mixed0", 0, 0, {}]]}, {"name": "conv2d_482", "class_name": "Conv2D", "config": {"name": "conv2d_482", "trainable": false, "dtype": "float32", "filters": 64, "kernel_size": [1, 1], "strides": [1, 1], "padding": "same", "data_format": "channels_last", "dilation_rate": [1, 1], "activation": "linear", "use_bias": false, "kernel_initializer": {"class_name": "GlorotUniform", "config": {"seed": null}}, "bias_initializer": {"class_name": "Zeros", "config": {}}, "kernel_regularizer": null, "bias_regularizer": null, "activity_regularizer": null, "kernel_constraint": null, "bias_constraint": null}, "inbound_nodes": [["mixed0", 0, 0, {}]]}, {"name": "conv2d_484", "class_name": "Conv2D", "config": {"name": "conv2d_484", "trainable": false, "dtype": "float32", "filters": 64, "kernel_size": [5, 5], "strides": [1, 1], "padding": "same", "data_format": "channels_last", "dilation_rate": [1, 1], "activation": "linear", "use_bias": false, "kernel_initializer": {"class_name": "GlorotUniform", "config": {"seed": null}}, "bias_initializer": {"class_name": "Zeros", "config": {}}, "kernel_regularizer": null, "bias_regularizer": null, "activity_regularizer": null, "kernel_constraint": null, "bias_constraint": null}, "inbound_nodes": [["activation_483", 0, 0, {}]]}, {"name": "conv2d_487", "class_name": "Conv2D", "config": {"name": "conv2d_487", "trainable": false, "dtype": "float32", "filters": 96, "kernel_size": [3, 3], "strides": [1, 1], "padding": "same", "data_format": "channels_last", "dilation_rate": [1, 1], "activation": "linear", "use_bias": false, "kernel_initializer": {"class_name": "GlorotUniform", "config": {"seed": null}}, "bias_initializer": {"class_name": "Zeros", "config": {}}, "kernel_regularizer": null, "bias_regularizer": null, "activity_regularizer": null, "kernel_constraint": null, "bias_constraint": null}, "inbound_nodes": [["activation_486", 0, 0, {}]]}, {"name": "conv2d_488", "class_name": "Conv2D", "config": {"name": "conv2d_488", "trainable": false, "dtype": "float32", "filters": 64, "kernel_size": [1, 1], "strides": [1, 1], "padding": "same", "data_format": "channels_last", "dilation_rate": [1, 1], "activation": "linear", "use_bias": false, "kernel_initializer": {"class_name": "GlorotUniform", "config": {"seed": null}}, "bias_initializer": {"class_name": "Zeros", "config": {}}, "kernel_regularizer": null, "bias_regularizer": null, "activity_regularizer": null, "kernel_constraint": null, "bias_constraint": null}, "inbound_nodes": [["average_pooling2d_46", 0, 0, {}]]}, {"name": "batch_normalization_v1_482", "class_name": "BatchNormalizationV1", "config": {"name": "batch_normalization_v1_482", "trainable": false, "dtype": "float32", "axis": [3], "momentum": 0.99, "epsilon": 0.001, "center": true, "scale": false, "beta_initializer": {"class_name": "Zeros", "config": {}}, "gamma_initializer": {"class_name": "Ones", "config": {}}, "moving_mean_initializer": {"class_name": "Zeros", "config": {}}, "moving_variance_initializer": {"class_name": "Ones", "config": {}}, "beta_regularizer": null, "gamma_regularizer": null, "beta_constraint": null, "gamma_constraint": null}, "inbound_nodes": [["conv2d_482", 0, 0, {}]]}, {"name": "batch_normalization_v1_484", "class_name": "BatchNormalizationV1", "config": {"name": "batch_normalization_v1_484", "trainable": false, "dtype": "float32", "axis": [3], "momentum": 0.99, "epsilon": 0.001, "center": true, "scale": false, "beta_initializer": {"class_name": "Zeros", "config": {}}, "gamma_initializer": {"class_name": "Ones", "config": {}}, "moving_mean_initializer": {"class_name": "Zeros", "config": {}}, "moving_variance_initializer": {"class_name": "Ones", "config": {}}, "beta_regularizer": null, "gamma_regularizer": null, "beta_constraint": null, "gamma_constraint": null}, "inbound_nodes": [["conv2d_484", 0, 0, {}]]}, {"name": "batch_normalization_v1_487", "class_name": "BatchNormalizationV1", "config": {"name": "batch_normalization_v1_487", "trainable": false, "dtype": "float32", "axis": [3], "momentum": 0.99, "epsilon": 0.001, "center": true, "scale": false, "beta_initializer": {"class_name": "Zeros", "config": {}}, "gamma_initializer": {"class_name": "Ones", "config": {}}, "moving_mean_initializer": {"class_name": "Zeros", "config": {}}, "moving_variance_initializer": {"class_name": "Ones", "config": {}}, "beta_regularizer": null, "gamma_regularizer": null, "beta_constraint": null, "gamma_constraint": null}, "inbound_nodes": [["conv2d_487", 0, 0, {}]]}, {"name": "batch_normalization_v1_488", "class_name": "BatchNormalizationV1", "config": {"name": "batch_normalization_v1_488", "trainable": false, "dtype": "float32", "axis": [3], "momentum": 0.99, "epsilon": 0.001, "center": true, "scale": false, "beta_initializer": {"class_name": "Zeros", "config": {}}, "gamma_initializer": {"class_name": "Ones", "config": {}}, "moving_mean_initializer": {"class_name": "Zeros", "config": {}}, "moving_variance_initializer": {"class_name": "Ones", "config": {}}, "beta_regularizer": null, "gamma_regularizer": null, "beta_constraint": null, "gamma_constraint": null}, "inbound_nodes": [["conv2d_488", 0, 0, {}]]}, {"name": "activation_482", "class_name": "Activation", "config": {"name": "activation_482", "trainable": false, "dtype": "float32", "activation": "relu"}, "inbound_nodes": [["batch_normalization_v1_482", 0, 0, {}]]}, {"name": "activation_484", "class_name": "Activation", "config": {"name": "activation_484", "trainable": false, "dtype": "float32", "activation": "relu"}, "inbound_nodes": [["batch_normalization_v1_484", 0, 0, {}]]}, {"name": "activation_487", "class_name": "Activation", "config": {"name": "activation_487", "trainable": false, "dtype": "float32", "activation": "relu"}, "inbound_nodes": [["batch_normalization_v1_487", 0, 0, {}]]}, {"name": "activation_488", "class_name": "Activation", "config": {"name": "activation_488", "trainable": false, "dtype": "float32", "activation": "relu"}, "inbound_nodes": [["batch_normalization_v1_488", 0, 0, {}]]}, {"name": "mixed1", "class_name": "Concatenate", "config": {"name": "mixed1", "trainable": false, "dtype": "float32", "axis": 3}, "inbound_nodes": [[["activation_482", 0, 0, {}], ["activation_484", 0, 0, {}], ["activation_487", 0, 0, {}], ["activation_488", 0, 0, {}]]]}, {"name": "conv2d_492", "class_name": "Conv2D", "config": {"name": "conv2d_492", "trainable": false, "dtype": "float32", "filters": 64, "kernel_size": [1, 1], "strides": [1, 1], "padding": "same", "data_format": "channels_last", "dilation_rate": [1, 1], "activation": "linear", "use_bias": false, "kernel_initializer": {"class_name": "GlorotUniform", "config": {"seed": null}}, "bias_initializer": {"class_name": "Zeros", "config": {}}, "kernel_regularizer": null, "bias_regularizer": null, "activity_regularizer": null, "kernel_constraint": null, "bias_constraint": null}, "inbound_nodes": [["mixed1", 0, 0, {}]]}, {"name": "batch_normalization_v1_492", "class_name": "BatchNormalizationV1", "config": {"name": "batch_normalization_v1_492", "trainable": false, "dtype": "float32", "axis": [3], "momentum": 0.99, "epsilon": 0.001, "center": true, "scale": false, "beta_initializer": {"class_name": "Zeros", "config": {}}, "gamma_initializer": {"class_name": "Ones", "config": {}}, "moving_mean_initializer": {"class_name": "Zeros", "config": {}}, "moving_variance_initializer": {"class_name": "Ones", "config": {}}, "beta_regularizer": null, "gamma_regularizer": null, "beta_constraint": null, "gamma_constraint": null}, "inbound_nodes": [["conv2d_492", 0, 0, {}]]}, {"name": "activation_492", "class_name": "Activation", "config": {"name": "activation_492", "trainable": false, "dtype": "float32", "activation": "relu"}, "inbound_nodes": [["batch_normalization_v1_492", 0, 0, {}]]}, {"name": "conv2d_490", "class_name": "Conv2D", "config": {"name": "conv2d_490", "trainable": false, "dtype": "float32", "filters": 48, "kernel_size": [1, 1], "strides": [1, 1], "padding": "same", "data_format": "channels_last", "dilation_rate": [1, 1], "activation": "linear", "use_bias": false, "kernel_initializer": {"class_name": "GlorotUniform", "config": {"seed": null}}, "bias_initializer": {"class_name": "Zeros", "config": {}}, "kernel_regularizer": null, "bias_regularizer": null, "activity_regularizer": null, "kernel_constraint": null, "bias_constraint": null}, "inbound_nodes": [["mixed1", 0, 0, {}]]}, {"name": "conv2d_493", "class_name": "Conv2D", "config": {"name": "conv2d_493", "trainable": false, "dtype": "float32", "filters": 96, "kernel_size": [3, 3], "strides": [1, 1], "padding": "same", "data_format": "channels_last", "dilation_rate": [1, 1], "activation": "linear", "use_bias": false, "kernel_initializer": {"class_name": "GlorotUniform", "config": {"seed": null}}, "bias_initializer": {"class_name": "Zeros", "config": {}}, "kernel_regularizer": null, "bias_regularizer": null, "activity_regularizer": null, "kernel_constraint": null, "bias_constraint": null}, "inbound_nodes": [["activation_492", 0, 0, {}]]}, {"name": "batch_normalization_v1_490", "class_name": "BatchNormalizationV1", "config": {"name": "batch_normalization_v1_490", "trainable": false, "dtype": "float32", "axis": [3], "momentum": 0.99, "epsilon": 0.001, "center": true, "scale": false, "beta_initializer": {"class_name": "Zeros", "config": {}}, "gamma_initializer": {"class_name": "Ones", "config": {}}, "moving_mean_initializer": {"class_name": "Zeros", "config": {}}, "moving_variance_initializer": {"class_name": "Ones", "config": {}}, "beta_regularizer": null, "gamma_regularizer": null, "beta_constraint": null, "gamma_constraint": null}, "inbound_nodes": [["conv2d_490", 0, 0, {}]]}, {"name": "batch_normalization_v1_493", "class_name": "BatchNormalizationV1", "config": {"name": "batch_normalization_v1_493", "trainable": false, "dtype": "float32", "axis": [3], "momentum": 0.99, "epsilon": 0.001, "center": true, "scale": false, "beta_initializer": {"class_name": "Zeros", "config": {}}, "gamma_initializer": {"class_name": "Ones", "config": {}}, "moving_mean_initializer": {"class_name": "Zeros", "config": {}}, "moving_variance_initializer": {"class_name": "Ones", "config": {}}, "beta_regularizer": null, "gamma_regularizer": null, "beta_constraint": null, "gamma_constraint": null}, "inbound_nodes": [["conv2d_493", 0, 0, {}]]}, {"name": "activation_490", "class_name": "Activation", "config": {"name": "activation_490", "trainable": false, "dtype": "float32", "activation": "relu"}, "inbound_nodes": [["batch_normalization_v1_490", 0, 0, {}]]}, {"name": "activation_493", "class_name": "Activation", "config": {"name": "activation_493", "trainable": false, "dtype": "float32", "activation": "relu"}, "inbound_nodes": [["batch_normalization_v1_493", 0, 0, {}]]}, {"name": "average_pooling2d_47", "class_name": "AveragePooling2D", "config": {"name": "average_pooling2d_47", "trainable": false, "dtype": "float32", "pool_size": [3, 3], "padding": "same", "strides": [1, 1], "data_format": "channels_last"}, "inbound_nodes": [["mixed1", 0, 0, {}]]}, {"name": "conv2d_489", "class_name": "Conv2D", "config": {"name": "conv2d_489", "trainable": false, "dtype": "float32", "filters": 64, "kernel_size": [1, 1], "strides": [1, 1], "padding": "same", "data_format": "channels_last", "dilation_rate": [1, 1], "activation": "linear", "use_bias": false, "kernel_initializer": {"class_name": "GlorotUniform", "config": {"seed": null}}, "bias_initializer": {"class_name": "Zeros", "config": {}}, "kernel_regularizer": null, "bias_regularizer": null, "activity_regularizer": null, "kernel_constraint": null, "bias_constraint": null}, "inbound_nodes": [["mixed1", 0, 0, {}]]}, {"name": "conv2d_491", "class_name": "Conv2D", "config": {"name": "conv2d_491", "trainable": false, "dtype": "float32", "filters": 64, "kernel_size": [5, 5], "strides": [1, 1], "padding": "same", "data_format": "channels_last", "dilation_rate": [1, 1], "activation": "linear", "use_bias": false, "kernel_initializer": {"class_name": "GlorotUniform", "config": {"seed": null}}, "bias_initializer": {"class_name": "Zeros", "config": {}}, "kernel_regularizer": null, "bias_regularizer": null, "activity_regularizer": null, "kernel_constraint": null, "bias_constraint": null}, "inbound_nodes": [["activation_490", 0, 0, {}]]}, {"name": "conv2d_494", "class_name": "Conv2D", "config": {"name": "conv2d_494", "trainable": false, "dtype": "float32", "filters": 96, "kernel_size": [3, 3], "strides": [1, 1], "padding": "same", "data_format": "channels_last", "dilation_rate": [1, 1], "activation": "linear", "use_bias": false, "kernel_initializer": {"class_name": "GlorotUniform", "config": {"seed": null}}, "bias_initializer": {"class_name": "Zeros", "config": {}}, "kernel_regularizer": null, "bias_regularizer": null, "activity_regularizer": null, "kernel_constraint": null, "bias_constraint": null}, "inbound_nodes": [["activation_493", 0, 0, {}]]}, {"name": "conv2d_495", "class_name": "Conv2D", "config": {"name": "conv2d_495", "trainable": false, "dtype": "float32", "filters": 64, "kernel_size": [1, 1], "strides": [1, 1], "padding": "same", "data_format": "channels_last", "dilation_rate": [1, 1], "activation": "linear", "use_bias": false, "kernel_initializer": {"class_name": "GlorotUniform", "config": {"seed": null}}, "bias_initializer": {"class_name": "Zeros", "config": {}}, "kernel_regularizer": null, "bias_regularizer": null, "activity_regularizer": null, "kernel_constraint": null, "bias_constraint": null}, "inbound_nodes": [["average_pooling2d_47", 0, 0, {}]]}, {"name": "batch_normalization_v1_489", "class_name": "BatchNormalizationV1", "config": {"name": "batch_normalization_v1_489", "trainable": false, "dtype": "float32", "axis": [3], "momentum": 0.99, "epsilon": 0.001, "center": true, "scale": false, "beta_initializer": {"class_name": "Zeros", "config": {}}, "gamma_initializer": {"class_name": "Ones", "config": {}}, "moving_mean_initializer": {"class_name": "Zeros", "config": {}}, "moving_variance_initializer": {"class_name": "Ones", "config": {}}, "beta_regularizer": null, "gamma_regularizer": null, "beta_constraint": null, "gamma_constraint": null}, "inbound_nodes": [["conv2d_489", 0, 0, {}]]}, {"name": "batch_normalization_v1_491", "class_name": "BatchNormalizationV1", "config": {"name": "batch_normalization_v1_491", "trainable": false, "dtype": "float32", "axis": [3], "momentum": 0.99, "epsilon": 0.001, "center": true, "scale": false, "beta_initializer": {"class_name": "Zeros", "config": {}}, "gamma_initializer": {"class_name": "Ones", "config": {}}, "moving_mean_initializer": {"class_name": "Zeros", "config": {}}, "moving_variance_initializer": {"class_name": "Ones", "config": {}}, "beta_regularizer": null, "gamma_regularizer": null, "beta_constraint": null, "gamma_constraint": null}, "inbound_nodes": [["conv2d_491", 0, 0, {}]]}, {"name": "batch_normalization_v1_494", "class_name": "BatchNormalizationV1", "config": {"name": "batch_normalization_v1_494", "trainable": false, "dtype": "float32", "axis": [3], "momentum": 0.99, "epsilon": 0.001, "center": true, "scale": false, "beta_initializer": {"class_name": "Zeros", "config": {}}, "gamma_initializer": {"class_name": "Ones", "config": {}}, "moving_mean_initializer": {"class_name": "Zeros", "config": {}}, "moving_variance_initializer": {"class_name": "Ones", "config": {}}, "beta_regularizer": null, "gamma_regularizer": null, "beta_constraint": null, "gamma_constraint": null}, "inbound_nodes": [["conv2d_494", 0, 0, {}]]}, {"name": "batch_normalization_v1_495", "class_name": "BatchNormalizationV1", "config": {"name": "batch_normalization_v1_495", "trainable": false, "dtype": "float32", "axis": [3], "momentum": 0.99, "epsilon": 0.001, "center": true, "scale": false, "beta_initializer": {"class_name": "Zeros", "config": {}}, "gamma_initializer": {"class_name": "Ones", "config": {}}, "moving_mean_initializer": {"class_name": "Zeros", "config": {}}, "moving_variance_initializer": {"class_name": "Ones", "config": {}}, "beta_regularizer": null, "gamma_regularizer": null, "beta_constraint": null, "gamma_constraint": null}, "inbound_nodes": [["conv2d_495", 0, 0, {}]]}, {"name": "activation_489", "class_name": "Activation", "config": {"name": "activation_489", "trainable": false, "dtype": "float32", "activation": "relu"}, "inbound_nodes": [["batch_normalization_v1_489", 0, 0, {}]]}, {"name": "activation_491", "class_name": "Activation", "config": {"name": "activation_491", "trainable": false, "dtype": "float32", "activation": "relu"}, "inbound_nodes": [["batch_normalization_v1_491", 0, 0, {}]]}, {"name": "activation_494", "class_name": "Activation", "config": {"name": "activation_494", "trainable": false, "dtype": "float32", "activation": "relu"}, "inbound_nodes": [["batch_normalization_v1_494", 0, 0, {}]]}, {"name": "activation_495", "class_name": "Activation", "config": {"name": "activation_495", "trainable": false, "dtype": "float32", "activation": "relu"}, "inbound_nodes": [["batch_normalization_v1_495", 0, 0, {}]]}, {"name": "mixed2", "class_name": "Concatenate", "config": {"name": "mixed2", "trainable": false, "dtype": "float32", "axis": 3}, "inbound_nodes": [[["activation_489", 0, 0, {}], ["activation_491", 0, 0, {}], ["activation_494", 0, 0, {}], ["activation_495", 0, 0, {}]]]}, {"name": "conv2d_497", "class_name": "Conv2D", "config": {"name": "conv2d_497", "trainable": false, "dtype": "float32", "filters": 64, "kernel_size": [1, 1], "strides": [1, 1], "padding": "same", "data_format": "channels_last", "dilation_rate": [1, 1], "activation": "linear", "use_bias": false, "kernel_initializer": {"class_name": "GlorotUniform", "config": {"seed": null}}, "bias_initializer": {"class_name": "Zeros", "config": {}}, "kernel_regularizer": null, "bias_regularizer": null, "activity_regularizer": null, "kernel_constraint": null, "bias_constraint": null}, "inbound_nodes": [["mixed2", 0, 0, {}]]}, {"name": "batch_normalization_v1_497", "class_name": "BatchNormalizationV1", "config": {"name": "batch_normalization_v1_497", "trainable": false, "dtype": "float32", "axis": [3], "momentum": 0.99, "epsilon": 0.001, "center": true, "scale": false, "beta_initializer": {"class_name": "Zeros", "config": {}}, "gamma_initializer": {"class_name": "Ones", "config": {}}, "moving_mean_initializer": {"class_name": "Zeros", "config": {}}, "moving_variance_initializer": {"class_name": "Ones", "config": {}}, "beta_regularizer": null, "gamma_regularizer": null, "beta_constraint": null, "gamma_constraint": null}, "inbound_nodes": [["conv2d_497", 0, 0, {}]]}, {"name": "activation_497", "class_name": "Activation", "config": {"name": "activation_497", "trainable": false, "dtype": "float32", "activation": "relu"}, "inbound_nodes": [["batch_normalization_v1_497", 0, 0, {}]]}, {"name": "conv2d_498", "class_name": "Conv2D", "config": {"name": "conv2d_498", "trainable": false, "dtype": "float32", "filters": 96, "kernel_size": [3, 3], "strides": [1, 1], "padding": "same", "data_format": "channels_last", "dilation_rate": [1, 1], "activation": "linear", "use_bias": false, "kernel_initializer": {"class_name": "GlorotUniform", "config": {"seed": null}}, "bias_initializer": {"class_name": "Zeros", "config": {}}, "kernel_regularizer": null, "bias_regularizer": null, "activity_regularizer": null, "kernel_constraint": null, "bias_constraint": null}, "inbound_nodes": [["activation_497", 0, 0, {}]]}, {"name": "batch_normalization_v1_498", "class_name": "BatchNormalizationV1", "config": {"name": "batch_normalization_v1_498", "trainable": false, "dtype": "float32", "axis": [3], "momentum": 0.99, "epsilon": 0.001, "center": true, "scale": false, "beta_initializer": {"class_name": "Zeros", "config": {}}, "gamma_initializer": {"class_name": "Ones", "config": {}}, "moving_mean_initializer": {"class_name": "Zeros", "config": {}}, "moving_variance_initializer": {"class_name": "Ones", "config": {}}, "beta_regularizer": null, "gamma_regularizer": null, "beta_constraint": null, "gamma_constraint": null}, "inbound_nodes": [["conv2d_498", 0, 0, {}]]}, {"name": "activation_498", "class_name": "Activation", "config": {"name": "activation_498", "trainable": false, "dtype": "float32", "activation": "relu"}, "inbound_nodes": [["batch_normalization_v1_498", 0, 0, {}]]}, {"name": "conv2d_496", "class_name": "Conv2D", "config": {"name": "conv2d_496", "trainable": false, "dtype": "float32", "filters": 384, "kernel_size": [3, 3], "strides": [2, 2], "padding": "valid", "data_format": "channels_last", "dilation_rate": [1, 1], "activation": "linear", "use_bias": false, "kernel_initializer": {"class_name": "GlorotUniform", "config": {"seed": null}}, "bias_initializer": {"class_name": "Zeros", "config": {}}, "kernel_regularizer": null, "bias_regularizer": null, "activity_regularizer": null, "kernel_constraint": null, "bias_constraint": null}, "inbound_nodes": [["mixed2", 0, 0, {}]]}, {"name": "conv2d_499", "class_name": "Conv2D", "config": {"name": "conv2d_499", "trainable": false, "dtype": "float32", "filters": 96, "kernel_size": [3, 3], "strides": [2, 2], "padding": "valid", "data_format": "channels_last", "dilation_rate": [1, 1], "activation": "linear", "use_bias": false, "kernel_initializer": {"class_name": "GlorotUniform", "config": {"seed": null}}, "bias_initializer": {"class_name": "Zeros", "config": {}}, "kernel_regularizer": null, "bias_regularizer": null, "activity_regularizer": null, "kernel_constraint": null, "bias_constraint": null}, "inbound_nodes": [["activation_498", 0, 0, {}]]}, {"name": "batch_normalization_v1_496", "class_name": "BatchNormalizationV1", "config": {"name": "batch_normalization_v1_496", "trainable": false, "dtype": "float32", "axis": [3], "momentum": 0.99, "epsilon": 0.001, "center": true, "scale": false, "beta_initializer": {"class_name": "Zeros", "config": {}}, "gamma_initializer": {"class_name": "Ones", "config": {}}, "moving_mean_initializer": {"class_name": "Zeros", "config": {}}, "moving_variance_initializer": {"class_name": "Ones", "config": {}}, "beta_regularizer": null, "gamma_regularizer": null, "beta_constraint": null, "gamma_constraint": null}, "inbound_nodes": [["conv2d_496", 0, 0, {}]]}, {"name": "batch_normalization_v1_499", "class_name": "BatchNormalizationV1", "config": {"name": "batch_normalization_v1_499", "trainable": false, "dtype": "float32", "axis": [3], "momentum": 0.99, "epsilon": 0.001, "center": true, "scale": false, "beta_initializer": {"class_name": "Zeros", "config": {}}, "gamma_initializer": {"class_name": "Ones", "config": {}}, "moving_mean_initializer": {"class_name": "Zeros", "config": {}}, "moving_variance_initializer": {"class_name": "Ones", "config": {}}, "beta_regularizer": null, "gamma_regularizer": null, "beta_constraint": null, "gamma_constraint": null}, "inbound_nodes": [["conv2d_499", 0, 0, {}]]}, {"name": "activation_496", "class_name": "Activation", "config": {"name": "activation_496", "trainable": false, "dtype": "float32", "activation": "relu"}, "inbound_nodes": [["batch_normalization_v1_496", 0, 0, {}]]}, {"name": "activation_499", "class_name": "Activation", "config": {"name": "activation_499", "trainable": false, "dtype": "float32", "activation": "relu"}, "inbound_nodes": [["batch_normalization_v1_499", 0, 0, {}]]}, {"name": "max_pooling2d_22", "class_name": "MaxPooling2D", "config": {"name": "max_pooling2d_22", "trainable": false, "dtype": "float32", "pool_size": [3, 3], "padding": "valid", "strides": [2, 2], "data_format": "channels_last"}, "inbound_nodes": [["mixed2", 0, 0, {}]]}, {"name": "mixed3", "class_name": "Concatenate", "config": {"name": "mixed3", "trainable": false, "dtype": "float32", "axis": 3}, "inbound_nodes": [[["activation_496", 0, 0, {}], ["activation_499", 0, 0, {}], ["max_pooling2d_22", 0, 0, {}]]]}, {"name": "conv2d_504", "class_name": "Conv2D", "config": {"name": "conv2d_504", "trainable": false, "dtype": "float32", "filters": 128, "kernel_size": [1, 1], "strides": [1, 1], "padding": "same", "data_format": "channels_last", "dilation_rate": [1, 1], "activation": "linear", "use_bias": false, "kernel_initializer": {"class_name": "GlorotUniform", "config": {"seed": null}}, "bias_initializer": {"class_name": "Zeros", "config": {}}, "kernel_regularizer": null, "bias_regularizer": null, "activity_regularizer": null, "kernel_constraint": null, "bias_constraint": null}, "inbound_nodes": [["mixed3", 0, 0, {}]]}, {"name": "batch_normalization_v1_504", "class_name": "BatchNormalizationV1", "config": {"name": "batch_normalization_v1_504", "trainable": false, "dtype": "float32", "axis": [3], "momentum": 0.99, "epsilon": 0.001, "center": true, "scale": false, "beta_initializer": {"class_name": "Zeros", "config": {}}, "gamma_initializer": {"class_name": "Ones", "config": {}}, "moving_mean_initializer": {"class_name": "Zeros", "config": {}}, "moving_variance_initializer": {"class_name": "Ones", "config": {}}, "beta_regularizer": null, "gamma_regularizer": null, "beta_constraint": null, "gamma_constraint": null}, "inbound_nodes": [["conv2d_504", 0, 0, {}]]}, {"name": "activation_504", "class_name": "Activation", "config": {"name": "activation_504", "trainable": false, "dtype": "float32", "activation": "relu"}, "inbound_nodes": [["batch_normalization_v1_504", 0, 0, {}]]}, {"name": "conv2d_505", "class_name": "Conv2D", "config": {"name": "conv2d_505", "trainable": false, "dtype": "float32", "filters": 128, "kernel_size": [7, 1], "strides": [1, 1], "padding": "same", "data_format": "channels_last", "dilation_rate": [1, 1], "activation": "linear", "use_bias": false, "kernel_initializer": {"class_name": "GlorotUniform", "config": {"seed": null}}, "bias_initializer": {"class_name": "Zeros", "config": {}}, "kernel_regularizer": null, "bias_regularizer": null, "activity_regularizer": null, "kernel_constraint": null, "bias_constraint": null}, "inbound_nodes": [["activation_504", 0, 0, {}]]}, {"name": "batch_normalization_v1_505", "class_name": "BatchNormalizationV1", "config": {"name": "batch_normalization_v1_505", "trainable": false, "dtype": "float32", "axis": [3], "momentum": 0.99, "epsilon": 0.001, "center": true, "scale": false, "beta_initializer": {"class_name": "Zeros", "config": {}}, "gamma_initializer": {"class_name": "Ones", "config": {}}, "moving_mean_initializer": {"class_name": "Zeros", "config": {}}, "moving_variance_initializer": {"class_name": "Ones", "config": {}}, "beta_regularizer": null, "gamma_regularizer": null, "beta_constraint": null, "gamma_constraint": null}, "inbound_nodes": [["conv2d_505", 0, 0, {}]]}, {"name": "activation_505", "class_name": "Activation", "config": {"name": "activation_505", "trainable": false, "dtype": "float32", "activation": "relu"}, "inbound_nodes": [["batch_normalization_v1_505", 0, 0, {}]]}, {"name": "conv2d_501", "class_name": "Conv2D", "config": {"name": "conv2d_501", "trainable": false, "dtype": "float32", "filters": 128, "kernel_size": [1, 1], "strides": [1, 1], "padding": "same", "data_format": "channels_last", "dilation_rate": [1, 1], "activation": "linear", "use_bias": false, "kernel_initializer": {"class_name": "GlorotUniform", "config": {"seed": null}}, "bias_initializer": {"class_name": "Zeros", "config": {}}, "kernel_regularizer": null, "bias_regularizer": null, "activity_regularizer": null, "kernel_constraint": null, "bias_constraint": null}, "inbound_nodes": [["mixed3", 0, 0, {}]]}, {"name": "conv2d_506", "class_name": "Conv2D", "config": {"name": "conv2d_506", "trainable": false, "dtype": "float32", "filters": 128, "kernel_size": [1, 7], "strides": [1, 1], "padding": "same", "data_format": "channels_last", "dilation_rate": [1, 1], "activation": "linear", "use_bias": false, "kernel_initializer": {"class_name": "GlorotUniform", "config": {"seed": null}}, "bias_initializer": {"class_name": "Zeros", "config": {}}, "kernel_regularizer": null, "bias_regularizer": null, "activity_regularizer": null, "kernel_constraint": null, "bias_constraint": null}, "inbound_nodes": [["activation_505", 0, 0, {}]]}, {"name": "batch_normalization_v1_501", "class_name": "BatchNormalizationV1", "config": {"name": "batch_normalization_v1_501", "trainable": false, "dtype": "float32", "axis": [3], "momentum": 0.99, "epsilon": 0.001, "center": true, "scale": false, "beta_initializer": {"class_name": "Zeros", "config": {}}, "gamma_initializer": {"class_name": "Ones", "config": {}}, "moving_mean_initializer": {"class_name": "Zeros", "config": {}}, "moving_variance_initializer": {"class_name": "Ones", "config": {}}, "beta_regularizer": null, "gamma_regularizer": null, "beta_constraint": null, "gamma_constraint": null}, "inbound_nodes": [["conv2d_501", 0, 0, {}]]}, {"name": "batch_normalization_v1_506", "class_name": "BatchNormalizationV1", "config": {"name": "batch_normalization_v1_506", "trainable": false, "dtype": "float32", "axis": [3], "momentum": 0.99, "epsilon": 0.001, "center": true, "scale": false, "beta_initializer": {"class_name": "Zeros", "config": {}}, "gamma_initializer": {"class_name": "Ones", "config": {}}, "moving_mean_initializer": {"class_name": "Zeros", "config": {}}, "moving_variance_initializer": {"class_name": "Ones", "config": {}}, "beta_regularizer": null, "gamma_regularizer": null, "beta_constraint": null, "gamma_constraint": null}, "inbound_nodes": [["conv2d_506", 0, 0, {}]]}, {"name": "activation_501", "class_name": "Activation", "config": {"name": "activation_501", "trainable": false, "dtype": "float32", "activation": "relu"}, "inbound_nodes": [["batch_normalization_v1_501", 0, 0, {}]]}, {"name": "activation_506", "class_name": "Activation", "config": {"name": "activation_506", "trainable": false, "dtype": "float32", "activation": "relu"}, "inbound_nodes": [["batch_normalization_v1_506", 0, 0, {}]]}, {"name": "conv2d_502", "class_name": "Conv2D", "config": {"name": "conv2d_502", "trainable": false, "dtype": "float32", "filters": 128, "kernel_size": [1, 7], "strides": [1, 1], "padding": "same", "data_format": "channels_last", "dilation_rate": [1, 1], "activation": "linear", "use_bias": false, "kernel_initializer": {"class_name": "GlorotUniform", "config": {"seed": null}}, "bias_initializer": {"class_name": "Zeros", "config": {}}, "kernel_regularizer": null, "bias_regularizer": null, "activity_regularizer": null, "kernel_constraint": null, "bias_constraint": null}, "inbound_nodes": [["activation_501", 0, 0, {}]]}, {"name": "conv2d_507", "class_name": "Conv2D", "config": {"name": "conv2d_507", "trainable": false, "dtype": "float32", "filters": 128, "kernel_size": [7, 1], "strides": [1, 1], "padding": "same", "data_format": "channels_last", "dilation_rate": [1, 1], "activation": "linear", "use_bias": false, "kernel_initializer": {"class_name": "GlorotUniform", "config": {"seed": null}}, "bias_initializer": {"class_name": "Zeros", "config": {}}, "kernel_regularizer": null, "bias_regularizer": null, "activity_regularizer": null, "kernel_constraint": null, "bias_constraint": null}, "inbound_nodes": [["activation_506", 0, 0, {}]]}, {"name": "batch_normalization_v1_502", "class_name": "BatchNormalizationV1", "config": {"name": "batch_normalization_v1_502", "trainable": false, "dtype": "float32", "axis": [3], "momentum": 0.99, "epsilon": 0.001, "center": true, "scale": false, "beta_initializer": {"class_name": "Zeros", "config": {}}, "gamma_initializer": {"class_name": "Ones", "config": {}}, "moving_mean_initializer": {"class_name": "Zeros", "config": {}}, "moving_variance_initializer": {"class_name": "Ones", "config": {}}, "beta_regularizer": null, "gamma_regularizer": null, "beta_constraint": null, "gamma_constraint": null}, "inbound_nodes": [["conv2d_502", 0, 0, {}]]}, {"name": "batch_normalization_v1_507", "class_name": "BatchNormalizationV1", "config": {"name": "batch_normalization_v1_507", "trainable": false, "dtype": "float32", "axis": [3], "momentum": 0.99, "epsilon": 0.001, "center": true, "scale": false, "beta_initializer": {"class_name": "Zeros", "config": {}}, "gamma_initializer": {"class_name": "Ones", "config": {}}, "moving_mean_initializer": {"class_name": "Zeros", "config": {}}, "moving_variance_initializer": {"class_name": "Ones", "config": {}}, "beta_regularizer": null, "gamma_regularizer": null, "beta_constraint": null, "gamma_constraint": null}, "inbound_nodes": [["conv2d_507", 0, 0, {}]]}, {"name": "activation_502", "class_name": "Activation", "config": {"name": "activation_502", "trainable": false, "dtype": "float32", "activation": "relu"}, "inbound_nodes": [["batch_normalization_v1_502", 0, 0, {}]]}, {"name": "activation_507", "class_name": "Activation", "config": {"name": "activation_507", "trainable": false, "dtype": "float32", "activation": "relu"}, "inbound_nodes": [["batch_normalization_v1_507", 0, 0, {}]]}, {"name": "average_pooling2d_48", "class_name": "AveragePooling2D", "config": {"name": "average_pooling2d_48", "trainable": false, "dtype": "float32", "pool_size": [3, 3], "padding": "same", "strides": [1, 1], "data_format": "channels_last"}, "inbound_nodes": [["mixed3", 0, 0, {}]]}, {"name": "conv2d_500", "class_name": "Conv2D", "config": {"name": "conv2d_500", "trainable": false, "dtype": "float32", "filters": 192, "kernel_size": [1, 1], "strides": [1, 1], "padding": "same", "data_format": "channels_last", "dilation_rate": [1, 1], "activation": "linear", "use_bias": false, "kernel_initializer": {"class_name": "GlorotUniform", "config": {"seed": null}}, "bias_initializer": {"class_name": "Zeros", "config": {}}, "kernel_regularizer": null, "bias_regularizer": null, "activity_regularizer": null, "kernel_constraint": null, "bias_constraint": null}, "inbound_nodes": [["mixed3", 0, 0, {}]]}, {"name": "conv2d_503", "class_name": "Conv2D", "config": {"name": "conv2d_503", "trainable": false, "dtype": "float32", "filters": 192, "kernel_size": [7, 1], "strides": [1, 1], "padding": "same", "data_format": "channels_last", "dilation_rate": [1, 1], "activation": "linear", "use_bias": false, "kernel_initializer": {"class_name": "GlorotUniform", "config": {"seed": null}}, "bias_initializer": {"class_name": "Zeros", "config": {}}, "kernel_regularizer": null, "bias_regularizer": null, "activity_regularizer": null, "kernel_constraint": null, "bias_constraint": null}, "inbound_nodes": [["activation_502", 0, 0, {}]]}, {"name": "conv2d_508", "class_name": "Conv2D", "config": {"name": "conv2d_508", "trainable": false, "dtype": "float32", "filters": 192, "kernel_size": [1, 7], "strides": [1, 1], "padding": "same", "data_format": "channels_last", "dilation_rate": [1, 1], "activation": "linear", "use_bias": false, "kernel_initializer": {"class_name": "GlorotUniform", "config": {"seed": null}}, "bias_initializer": {"class_name": "Zeros", "config": {}}, "kernel_regularizer": null, "bias_regularizer": null, "activity_regularizer": null, "kernel_constraint": null, "bias_constraint": null}, "inbound_nodes": [["activation_507", 0, 0, {}]]}, {"name": "conv2d_509", "class_name": "Conv2D", "config": {"name": "conv2d_509", "trainable": false, "dtype": "float32", "filters": 192, "kernel_size": [1, 1], "strides": [1, 1], "padding": "same", "data_format": "channels_last", "dilation_rate": [1, 1], "activation": "linear", "use_bias": false, "kernel_initializer": {"class_name": "GlorotUniform", "config": {"seed": null}}, "bias_initializer": {"class_name": "Zeros", "config": {}}, "kernel_regularizer": null, "bias_regularizer": null, "activity_regularizer": null, "kernel_constraint": null, "bias_constraint": null}, "inbound_nodes": [["average_pooling2d_48", 0, 0, {}]]}, {"name": "batch_normalization_v1_500", "class_name": "BatchNormalizationV1", "config": {"name": "batch_normalization_v1_500", "trainable": false, "dtype": "float32", "axis": [3], "momentum": 0.99, "epsilon": 0.001, "center": true, "scale": false, "beta_initializer": {"class_name": "Zeros", "config": {}}, "gamma_initializer": {"class_name": "Ones", "config": {}}, "moving_mean_initializer": {"class_name": "Zeros", "config": {}}, "moving_variance_initializer": {"class_name": "Ones", "config": {}}, "beta_regularizer": null, "gamma_regularizer": null, "beta_constraint": null, "gamma_constraint": null}, "inbound_nodes": [["conv2d_500", 0, 0, {}]]}, {"name": "batch_normalization_v1_503", "class_name": "BatchNormalizationV1", "config": {"name": "batch_normalization_v1_503", "trainable": false, "dtype": "float32", "axis": [3], "momentum": 0.99, "epsilon": 0.001, "center": true, "scale": false, "beta_initializer": {"class_name": "Zeros", "config": {}}, "gamma_initializer": {"class_name": "Ones", "config": {}}, "moving_mean_initializer": {"class_name": "Zeros", "config": {}}, "moving_variance_initializer": {"class_name": "Ones", "config": {}}, "beta_regularizer": null, "gamma_regularizer": null, "beta_constraint": null, "gamma_constraint": null}, "inbound_nodes": [["conv2d_503", 0, 0, {}]]}, {"name": "batch_normalization_v1_508", "class_name": "BatchNormalizationV1", "config": {"name": "batch_normalization_v1_508", "trainable": false, "dtype": "float32", "axis": [3], "momentum": 0.99, "epsilon": 0.001, "center": true, "scale": false, "beta_initializer": {"class_name": "Zeros", "config": {}}, "gamma_initializer": {"class_name": "Ones", "config": {}}, "moving_mean_initializer": {"class_name": "Zeros", "config": {}}, "moving_variance_initializer": {"class_name": "Ones", "config": {}}, "beta_regularizer": null, "gamma_regularizer": null, "beta_constraint": null, "gamma_constraint": null}, "inbound_nodes": [["conv2d_508", 0, 0, {}]]}, {"name": "batch_normalization_v1_509", "class_name": "BatchNormalizationV1", "config": {"name": "batch_normalization_v1_509", "trainable": false, "dtype": "float32", "axis": [3], "momentum": 0.99, "epsilon": 0.001, "center": true, "scale": false, "beta_initializer": {"class_name": "Zeros", "config": {}}, "gamma_initializer": {"class_name": "Ones", "config": {}}, "moving_mean_initializer": {"class_name": "Zeros", "config": {}}, "moving_variance_initializer": {"class_name": "Ones", "config": {}}, "beta_regularizer": null, "gamma_regularizer": null, "beta_constraint": null, "gamma_constraint": null}, "inbound_nodes": [["conv2d_509", 0, 0, {}]]}, {"name": "activation_500", "class_name": "Activation", "config": {"name": "activation_500", "trainable": false, "dtype": "float32", "activation": "relu"}, "inbound_nodes": [["batch_normalization_v1_500", 0, 0, {}]]}, {"name": "activation_503", "class_name": "Activation", "config": {"name": "activation_503", "trainable": false, "dtype": "float32", "activation": "relu"}, "inbound_nodes": [["batch_normalization_v1_503", 0, 0, {}]]}, {"name": "activation_508", "class_name": "Activation", "config": {"name": "activation_508", "trainable": false, "dtype": "float32", "activation": "relu"}, "inbound_nodes": [["batch_normalization_v1_508", 0, 0, {}]]}, {"name": "activation_509", "class_name": "Activation", "config": {"name": "activation_509", "trainable": false, "dtype": "float32", "activation": "relu"}, "inbound_nodes": [["batch_normalization_v1_509", 0, 0, {}]]}, {"name": "mixed4", "class_name": "Concatenate", "config": {"name": "mixed4", "trainable": false, "dtype": "float32", "axis": 3}, "inbound_nodes": [[["activation_500", 0, 0, {}], ["activation_503", 0, 0, {}], ["activation_508", 0, 0, {}], ["activation_509", 0, 0, {}]]]}, {"name": "conv2d_514", "class_name": "Conv2D", "config": {"name": "conv2d_514", "trainable": false, "dtype": "float32", "filters": 160, "kernel_size": [1, 1], "strides": [1, 1], "padding": "same", "data_format": "channels_last", "dilation_rate": [1, 1], "activation": "linear", "use_bias": false, "kernel_initializer": {"class_name": "GlorotUniform", "config": {"seed": null}}, "bias_initializer": {"class_name": "Zeros", "config": {}}, "kernel_regularizer": null, "bias_regularizer": null, "activity_regularizer": null, "kernel_constraint": null, "bias_constraint": null}, "inbound_nodes": [["mixed4", 0, 0, {}]]}, {"name": "batch_normalization_v1_514", "class_name": "BatchNormalizationV1", "config": {"name": "batch_normalization_v1_514", "trainable": false, "dtype": "float32", "axis": [3], "momentum": 0.99, "epsilon": 0.001, "center": true, "scale": false, "beta_initializer": {"class_name": "Zeros", "config": {}}, "gamma_initializer": {"class_name": "Ones", "config": {}}, "moving_mean_initializer": {"class_name": "Zeros", "config": {}}, "moving_variance_initializer": {"class_name": "Ones", "config": {}}, "beta_regularizer": null, "gamma_regularizer": null, "beta_constraint": null, "gamma_constraint": null}, "inbound_nodes": [["conv2d_514", 0, 0, {}]]}, {"name": "activation_514", "class_name": "Activation", "config": {"name": "activation_514", "trainable": false, "dtype": "float32", "activation": "relu"}, "inbound_nodes": [["batch_normalization_v1_514", 0, 0, {}]]}, {"name": "conv2d_515", "class_name": "Conv2D", "config": {"name": "conv2d_515", "trainable": false, "dtype": "float32", "filters": 160, "kernel_size": [7, 1], "strides": [1, 1], "padding": "same", "data_format": "channels_last", "dilation_rate": [1, 1], "activation": "linear", "use_bias": false, "kernel_initializer": {"class_name": "GlorotUniform", "config": {"seed": null}}, "bias_initializer": {"class_name": "Zeros", "config": {}}, "kernel_regularizer": null, "bias_regularizer": null, "activity_regularizer": null, "kernel_constraint": null, "bias_constraint": null}, "inbound_nodes": [["activation_514", 0, 0, {}]]}, {"name": "batch_normalization_v1_515", "class_name": "BatchNormalizationV1", "config": {"name": "batch_normalization_v1_515", "trainable": false, "dtype": "float32", "axis": [3], "momentum": 0.99, "epsilon": 0.001, "center": true, "scale": false, "beta_initializer": {"class_name": "Zeros", "config": {}}, "gamma_initializer": {"class_name": "Ones", "config": {}}, "moving_mean_initializer": {"class_name": "Zeros", "config": {}}, "moving_variance_initializer": {"class_name": "Ones", "config": {}}, "beta_regularizer": null, "gamma_regularizer": null, "beta_constraint": null, "gamma_constraint": null}, "inbound_nodes": [["conv2d_515", 0, 0, {}]]}, {"name": "activation_515", "class_name": "Activation", "config": {"name": "activation_515", "trainable": false, "dtype": "float32", "activation": "relu"}, "inbound_nodes": [["batch_normalization_v1_515", 0, 0, {}]]}, {"name": "conv2d_511", "class_name": "Conv2D", "config": {"name": "conv2d_511", "trainable": false, "dtype": "float32", "filters": 160, "kernel_size": [1, 1], "strides": [1, 1], "padding": "same", "data_format": "channels_last", "dilation_rate": [1, 1], "activation": "linear", "use_bias": false, "kernel_initializer": {"class_name": "GlorotUniform", "config": {"seed": null}}, "bias_initializer": {"class_name": "Zeros", "config": {}}, "kernel_regularizer": null, "bias_regularizer": null, "activity_regularizer": null, "kernel_constraint": null, "bias_constraint": null}, "inbound_nodes": [["mixed4", 0, 0, {}]]}, {"name": "conv2d_516", "class_name": "Conv2D", "config": {"name": "conv2d_516", "trainable": false, "dtype": "float32", "filters": 160, "kernel_size": [1, 7], "strides": [1, 1], "padding": "same", "data_format": "channels_last", "dilation_rate": [1, 1], "activation": "linear", "use_bias": false, "kernel_initializer": {"class_name": "GlorotUniform", "config": {"seed": null}}, "bias_initializer": {"class_name": "Zeros", "config": {}}, "kernel_regularizer": null, "bias_regularizer": null, "activity_regularizer": null, "kernel_constraint": null, "bias_constraint": null}, "inbound_nodes": [["activation_515", 0, 0, {}]]}, {"name": "batch_normalization_v1_511", "class_name": "BatchNormalizationV1", "config": {"name": "batch_normalization_v1_511", "trainable": false, "dtype": "float32", "axis": [3], "momentum": 0.99, "epsilon": 0.001, "center": true, "scale": false, "beta_initializer": {"class_name": "Zeros", "config": {}}, "gamma_initializer": {"class_name": "Ones", "config": {}}, "moving_mean_initializer": {"class_name": "Zeros", "config": {}}, "moving_variance_initializer": {"class_name": "Ones", "config": {}}, "beta_regularizer": null, "gamma_regularizer": null, "beta_constraint": null, "gamma_constraint": null}, "inbound_nodes": [["conv2d_511", 0, 0, {}]]}, {"name": "batch_normalization_v1_516", "class_name": "BatchNormalizationV1", "config": {"name": "batch_normalization_v1_516", "trainable": false, "dtype": "float32", "axis": [3], "momentum": 0.99, "epsilon": 0.001, "center": true, "scale": false, "beta_initializer": {"class_name": "Zeros", "config": {}}, "gamma_initializer": {"class_name": "Ones", "config": {}}, "moving_mean_initializer": {"class_name": "Zeros", "config": {}}, "moving_variance_initializer": {"class_name": "Ones", "config": {}}, "beta_regularizer": null, "gamma_regularizer": null, "beta_constraint": null, "gamma_constraint": null}, "inbound_nodes": [["conv2d_516", 0, 0, {}]]}, {"name": "activation_511", "class_name": "Activation", "config": {"name": "activation_511", "trainable": false, "dtype": "float32", "activation": "relu"}, "inbound_nodes": [["batch_normalization_v1_511", 0, 0, {}]]}, {"name": "activation_516", "class_name": "Activation", "config": {"name": "activation_516", "trainable": false, "dtype": "float32", "activation": "relu"}, "inbound_nodes": [["batch_normalization_v1_516", 0, 0, {}]]}, {"name": "conv2d_512", "class_name": "Conv2D", "config": {"name": "conv2d_512", "trainable": false, "dtype": "float32", "filters": 160, "kernel_size": [1, 7], "strides": [1, 1], "padding": "same", "data_format": "channels_last", "dilation_rate": [1, 1], "activation": "linear", "use_bias": false, "kernel_initializer": {"class_name": "GlorotUniform", "config": {"seed": null}}, "bias_initializer": {"class_name": "Zeros", "config": {}}, "kernel_regularizer": null, "bias_regularizer": null, "activity_regularizer": null, "kernel_constraint": null, "bias_constraint": null}, "inbound_nodes": [["activation_511", 0, 0, {}]]}, {"name": "conv2d_517", "class_name": "Conv2D", "config": {"name": "conv2d_517", "trainable": false, "dtype": "float32", "filters": 160, "kernel_size": [7, 1], "strides": [1, 1], "padding": "same", "data_format": "channels_last", "dilation_rate": [1, 1], "activation": "linear", "use_bias": false, "kernel_initializer": {"class_name": "GlorotUniform", "config": {"seed": null}}, "bias_initializer": {"class_name": "Zeros", "config": {}}, "kernel_regularizer": null, "bias_regularizer": null, "activity_regularizer": null, "kernel_constraint": null, "bias_constraint": null}, "inbound_nodes": [["activation_516", 0, 0, {}]]}, {"name": "batch_normalization_v1_512", "class_name": "BatchNormalizationV1", "config": {"name": "batch_normalization_v1_512", "trainable": false, "dtype": "float32", "axis": [3], "momentum": 0.99, "epsilon": 0.001, "center": true, "scale": false, "beta_initializer": {"class_name": "Zeros", "config": {}}, "gamma_initializer": {"class_name": "Ones", "config": {}}, "moving_mean_initializer": {"class_name": "Zeros", "config": {}}, "moving_variance_initializer": {"class_name": "Ones", "config": {}}, "beta_regularizer": null, "gamma_regularizer": null, "beta_constraint": null, "gamma_constraint": null}, "inbound_nodes": [["conv2d_512", 0, 0, {}]]}, {"name": "batch_normalization_v1_517", "class_name": "BatchNormalizationV1", "config": {"name": "batch_normalization_v1_517", "trainable": false, "dtype": "float32", "axis": [3], "momentum": 0.99, "epsilon": 0.001, "center": true, "scale": false, "beta_initializer": {"class_name": "Zeros", "config": {}}, "gamma_initializer": {"class_name": "Ones", "config": {}}, "moving_mean_initializer": {"class_name": "Zeros", "config": {}}, "moving_variance_initializer": {"class_name": "Ones", "config": {}}, "beta_regularizer": null, "gamma_regularizer": null, "beta_constraint": null, "gamma_constraint": null}, "inbound_nodes": [["conv2d_517", 0, 0, {}]]}, {"name": "activation_512", "class_name": "Activation", "config": {"name": "activation_512", "trainable": false, "dtype": "float32", "activation": "relu"}, "inbound_nodes": [["batch_normalization_v1_512", 0, 0, {}]]}, {"name": "activation_517", "class_name": "Activation", "config": {"name": "activation_517", "trainable": false, "dtype": "float32", "activation": "relu"}, "inbound_nodes": [["batch_normalization_v1_517", 0, 0, {}]]}, {"name": "average_pooling2d_49", "class_name": "AveragePooling2D", "config": {"name": "average_pooling2d_49", "trainable": false, "dtype": "float32", "pool_size": [3, 3], "padding": "same", "strides": [1, 1], "data_format": "channels_last"}, "inbound_nodes": [["mixed4", 0, 0, {}]]}, {"name": "conv2d_510", "class_name": "Conv2D", "config": {"name": "conv2d_510", "trainable": false, "dtype": "float32", "filters": 192, "kernel_size": [1, 1], "strides": [1, 1], "padding": "same", "data_format": "channels_last", "dilation_rate": [1, 1], "activation": "linear", "use_bias": false, "kernel_initializer": {"class_name": "GlorotUniform", "config": {"seed": null}}, "bias_initializer": {"class_name": "Zeros", "config": {}}, "kernel_regularizer": null, "bias_regularizer": null, "activity_regularizer": null, "kernel_constraint": null, "bias_constraint": null}, "inbound_nodes": [["mixed4", 0, 0, {}]]}, {"name": "conv2d_513", "class_name": "Conv2D", "config": {"name": "conv2d_513", "trainable": false, "dtype": "float32", "filters": 192, "kernel_size": [7, 1], "strides": [1, 1], "padding": "same", "data_format": "channels_last", "dilation_rate": [1, 1], "activation": "linear", "use_bias": false, "kernel_initializer": {"class_name": "GlorotUniform", "config": {"seed": null}}, "bias_initializer": {"class_name": "Zeros", "config": {}}, "kernel_regularizer": null, "bias_regularizer": null, "activity_regularizer": null, "kernel_constraint": null, "bias_constraint": null}, "inbound_nodes": [["activation_512", 0, 0, {}]]}, {"name": "conv2d_518", "class_name": "Conv2D", "config": {"name": "conv2d_518", "trainable": false, "dtype": "float32", "filters": 192, "kernel_size": [1, 7], "strides": [1, 1], "padding": "same", "data_format": "channels_last", "dilation_rate": [1, 1], "activation": "linear", "use_bias": false, "kernel_initializer": {"class_name": "GlorotUniform", "config": {"seed": null}}, "bias_initializer": {"class_name": "Zeros", "config": {}}, "kernel_regularizer": null, "bias_regularizer": null, "activity_regularizer": null, "kernel_constraint": null, "bias_constraint": null}, "inbound_nodes": [["activation_517", 0, 0, {}]]}, {"name": "conv2d_519", "class_name": "Conv2D", "config": {"name": "conv2d_519", "trainable": false, "dtype": "float32", "filters": 192, "kernel_size": [1, 1], "strides": [1, 1], "padding": "same", "data_format": "channels_last", "dilation_rate": [1, 1], "activation": "linear", "use_bias": false, "kernel_initializer": {"class_name": "GlorotUniform", "config": {"seed": null}}, "bias_initializer": {"class_name": "Zeros", "config": {}}, "kernel_regularizer": null, "bias_regularizer": null, "activity_regularizer": null, "kernel_constraint": null, "bias_constraint": null}, "inbound_nodes": [["average_pooling2d_49", 0, 0, {}]]}, {"name": "batch_normalization_v1_510", "class_name": "BatchNormalizationV1", "config": {"name": "batch_normalization_v1_510", "trainable": false, "dtype": "float32", "axis": [3], "momentum": 0.99, "epsilon": 0.001, "center": true, "scale": false, "beta_initializer": {"class_name": "Zeros", "config": {}}, "gamma_initializer": {"class_name": "Ones", "config": {}}, "moving_mean_initializer": {"class_name": "Zeros", "config": {}}, "moving_variance_initializer": {"class_name": "Ones", "config": {}}, "beta_regularizer": null, "gamma_regularizer": null, "beta_constraint": null, "gamma_constraint": null}, "inbound_nodes": [["conv2d_510", 0, 0, {}]]}, {"name": "batch_normalization_v1_513", "class_name": "BatchNormalizationV1", "config": {"name": "batch_normalization_v1_513", "trainable": false, "dtype": "float32", "axis": [3], "momentum": 0.99, "epsilon": 0.001, "center": true, "scale": false, "beta_initializer": {"class_name": "Zeros", "config": {}}, "gamma_initializer": {"class_name": "Ones", "config": {}}, "moving_mean_initializer": {"class_name": "Zeros", "config": {}}, "moving_variance_initializer": {"class_name": "Ones", "config": {}}, "beta_regularizer": null, "gamma_regularizer": null, "beta_constraint": null, "gamma_constraint": null}, "inbound_nodes": [["conv2d_513", 0, 0, {}]]}, {"name": "batch_normalization_v1_518", "class_name": "BatchNormalizationV1", "config": {"name": "batch_normalization_v1_518", "trainable": false, "dtype": "float32", "axis": [3], "momentum": 0.99, "epsilon": 0.001, "center": true, "scale": false, "beta_initializer": {"class_name": "Zeros", "config": {}}, "gamma_initializer": {"class_name": "Ones", "config": {}}, "moving_mean_initializer": {"class_name": "Zeros", "config": {}}, "moving_variance_initializer": {"class_name": "Ones", "config": {}}, "beta_regularizer": null, "gamma_regularizer": null, "beta_constraint": null, "gamma_constraint": null}, "inbound_nodes": [["conv2d_518", 0, 0, {}]]}, {"name": "batch_normalization_v1_519", "class_name": "BatchNormalizationV1", "config": {"name": "batch_normalization_v1_519", "trainable": false, "dtype": "float32", "axis": [3], "momentum": 0.99, "epsilon": 0.001, "center": true, "scale": false, "beta_initializer": {"class_name": "Zeros", "config": {}}, "gamma_initializer": {"class_name": "Ones", "config": {}}, "moving_mean_initializer": {"class_name": "Zeros", "config": {}}, "moving_variance_initializer": {"class_name": "Ones", "config": {}}, "beta_regularizer": null, "gamma_regularizer": null, "beta_constraint": null, "gamma_constraint": null}, "inbound_nodes": [["conv2d_519", 0, 0, {}]]}, {"name": "activation_510", "class_name": "Activation", "config": {"name": "activation_510", "trainable": false, "dtype": "float32", "activation": "relu"}, "inbound_nodes": [["batch_normalization_v1_510", 0, 0, {}]]}, {"name": "activation_513", "class_name": "Activation", "config": {"name": "activation_513", "trainable": false, "dtype": "float32", "activation": "relu"}, "inbound_nodes": [["batch_normalization_v1_513", 0, 0, {}]]}, {"name": "activation_518", "class_name": "Activation", "config": {"name": "activation_518", "trainable": false, "dtype": "float32", "activation": "relu"}, "inbound_nodes": [["batch_normalization_v1_518", 0, 0, {}]]}, {"name": "activation_519", "class_name": "Activation", "config": {"name": "activation_519", "trainable": false, "dtype": "float32", "activation": "relu"}, "inbound_nodes": [["batch_normalization_v1_519", 0, 0, {}]]}, {"name": "mixed5", "class_name": "Concatenate", "config": {"name": "mixed5", "trainable": false, "dtype": "float32", "axis": 3}, "inbound_nodes": [[["activation_510", 0, 0, {}], ["activation_513", 0, 0, {}], ["activation_518", 0, 0, {}], ["activation_519", 0, 0, {}]]]}, {"name": "conv2d_524", "class_name": "Conv2D", "config": {"name": "conv2d_524", "trainable": false, "dtype": "float32", "filters": 160, "kernel_size": [1, 1], "strides": [1, 1], "padding": "same", "data_format": "channels_last", "dilation_rate": [1, 1], "activation": "linear", "use_bias": false, "kernel_initializer": {"class_name": "GlorotUniform", "config": {"seed": null}}, "bias_initializer": {"class_name": "Zeros", "config": {}}, "kernel_regularizer": null, "bias_regularizer": null, "activity_regularizer": null, "kernel_constraint": null, "bias_constraint": null}, "inbound_nodes": [["mixed5", 0, 0, {}]]}, {"name": "batch_normalization_v1_524", "class_name": "BatchNormalizationV1", "config": {"name": "batch_normalization_v1_524", "trainable": false, "dtype": "float32", "axis": [3], "momentum": 0.99, "epsilon": 0.001, "center": true, "scale": false, "beta_initializer": {"class_name": "Zeros", "config": {}}, "gamma_initializer": {"class_name": "Ones", "config": {}}, "moving_mean_initializer": {"class_name": "Zeros", "config": {}}, "moving_variance_initializer": {"class_name": "Ones", "config": {}}, "beta_regularizer": null, "gamma_regularizer": null, "beta_constraint": null, "gamma_constraint": null}, "inbound_nodes": [["conv2d_524", 0, 0, {}]]}, {"name": "activation_524", "class_name": "Activation", "config": {"name": "activation_524", "trainable": false, "dtype": "float32", "activation": "relu"}, "inbound_nodes": [["batch_normalization_v1_524", 0, 0, {}]]}, {"name": "conv2d_525", "class_name": "Conv2D", "config": {"name": "conv2d_525", "trainable": false, "dtype": "float32", "filters": 160, "kernel_size": [7, 1], "strides": [1, 1], "padding": "same", "data_format": "channels_last", "dilation_rate": [1, 1], "activation": "linear", "use_bias": false, "kernel_initializer": {"class_name": "GlorotUniform", "config": {"seed": null}}, "bias_initializer": {"class_name": "Zeros", "config": {}}, "kernel_regularizer": null, "bias_regularizer": null, "activity_regularizer": null, "kernel_constraint": null, "bias_constraint": null}, "inbound_nodes": [["activation_524", 0, 0, {}]]}, {"name": "batch_normalization_v1_525", "class_name": "BatchNormalizationV1", "config": {"name": "batch_normalization_v1_525", "trainable": false, "dtype": "float32", "axis": [3], "momentum": 0.99, "epsilon": 0.001, "center": true, "scale": false, "beta_initializer": {"class_name": "Zeros", "config": {}}, "gamma_initializer": {"class_name": "Ones", "config": {}}, "moving_mean_initializer": {"class_name": "Zeros", "config": {}}, "moving_variance_initializer": {"class_name": "Ones", "config": {}}, "beta_regularizer": null, "gamma_regularizer": null, "beta_constraint": null, "gamma_constraint": null}, "inbound_nodes": [["conv2d_525", 0, 0, {}]]}, {"name": "activation_525", "class_name": "Activation", "config": {"name": "activation_525", "trainable": false, "dtype": "float32", "activation": "relu"}, "inbound_nodes": [["batch_normalization_v1_525", 0, 0, {}]]}, {"name": "conv2d_521", "class_name": "Conv2D", "config": {"name": "conv2d_521", "trainable": false, "dtype": "float32", "filters": 160, "kernel_size": [1, 1], "strides": [1, 1], "padding": "same", "data_format": "channels_last", "dilation_rate": [1, 1], "activation": "linear", "use_bias": false, "kernel_initializer": {"class_name": "GlorotUniform", "config": {"seed": null}}, "bias_initializer": {"class_name": "Zeros", "config": {}}, "kernel_regularizer": null, "bias_regularizer": null, "activity_regularizer": null, "kernel_constraint": null, "bias_constraint": null}, "inbound_nodes": [["mixed5", 0, 0, {}]]}, {"name": "conv2d_526", "class_name": "Conv2D", "config": {"name": "conv2d_526", "trainable": false, "dtype": "float32", "filters": 160, "kernel_size": [1, 7], "strides": [1, 1], "padding": "same", "data_format": "channels_last", "dilation_rate": [1, 1], "activation": "linear", "use_bias": false, "kernel_initializer": {"class_name": "GlorotUniform", "config": {"seed": null}}, "bias_initializer": {"class_name": "Zeros", "config": {}}, "kernel_regularizer": null, "bias_regularizer": null, "activity_regularizer": null, "kernel_constraint": null, "bias_constraint": null}, "inbound_nodes": [["activation_525", 0, 0, {}]]}, {"name": "batch_normalization_v1_521", "class_name": "BatchNormalizationV1", "config": {"name": "batch_normalization_v1_521", "trainable": false, "dtype": "float32", "axis": [3], "momentum": 0.99, "epsilon": 0.001, "center": true, "scale": false, "beta_initializer": {"class_name": "Zeros", "config": {}}, "gamma_initializer": {"class_name": "Ones", "config": {}}, "moving_mean_initializer": {"class_name": "Zeros", "config": {}}, "moving_variance_initializer": {"class_name": "Ones", "config": {}}, "beta_regularizer": null, "gamma_regularizer": null, "beta_constraint": null, "gamma_constraint": null}, "inbound_nodes": [["conv2d_521", 0, 0, {}]]}, {"name": "batch_normalization_v1_526", "class_name": "BatchNormalizationV1", "config": {"name": "batch_normalization_v1_526", "trainable": false, "dtype": "float32", "axis": [3], "momentum": 0.99, "epsilon": 0.001, "center": true, "scale": false, "beta_initializer": {"class_name": "Zeros", "config": {}}, "gamma_initializer": {"class_name": "Ones", "config": {}}, "moving_mean_initializer": {"class_name": "Zeros", "config": {}}, "moving_variance_initializer": {"class_name": "Ones", "config": {}}, "beta_regularizer": null, "gamma_regularizer": null, "beta_constraint": null, "gamma_constraint": null}, "inbound_nodes": [["conv2d_526", 0, 0, {}]]}, {"name": "activation_521", "class_name": "Activation", "config": {"name": "activation_521", "trainable": false, "dtype": "float32", "activation": "relu"}, "inbound_nodes": [["batch_normalization_v1_521", 0, 0, {}]]}, {"name": "activation_526", "class_name": "Activation", "config": {"name": "activation_526", "trainable": false, "dtype": "float32", "activation": "relu"}, "inbound_nodes": [["batch_normalization_v1_526", 0, 0, {}]]}, {"name": "conv2d_522", "class_name": "Conv2D", "config": {"name": "conv2d_522", "trainable": false, "dtype": "float32", "filters": 160, "kernel_size": [1, 7], "strides": [1, 1], "padding": "same", "data_format": "channels_last", "dilation_rate": [1, 1], "activation": "linear", "use_bias": false, "kernel_initializer": {"class_name": "GlorotUniform", "config": {"seed": null}}, "bias_initializer": {"class_name": "Zeros", "config": {}}, "kernel_regularizer": null, "bias_regularizer": null, "activity_regularizer": null, "kernel_constraint": null, "bias_constraint": null}, "inbound_nodes": [["activation_521", 0, 0, {}]]}, {"name": "conv2d_527", "class_name": "Conv2D", "config": {"name": "conv2d_527", "trainable": false, "dtype": "float32", "filters": 160, "kernel_size": [7, 1], "strides": [1, 1], "padding": "same", "data_format": "channels_last", "dilation_rate": [1, 1], "activation": "linear", "use_bias": false, "kernel_initializer": {"class_name": "GlorotUniform", "config": {"seed": null}}, "bias_initializer": {"class_name": "Zeros", "config": {}}, "kernel_regularizer": null, "bias_regularizer": null, "activity_regularizer": null, "kernel_constraint": null, "bias_constraint": null}, "inbound_nodes": [["activation_526", 0, 0, {}]]}, {"name": "batch_normalization_v1_522", "class_name": "BatchNormalizationV1", "config": {"name": "batch_normalization_v1_522", "trainable": false, "dtype": "float32", "axis": [3], "momentum": 0.99, "epsilon": 0.001, "center": true, "scale": false, "beta_initializer": {"class_name": "Zeros", "config": {}}, "gamma_initializer": {"class_name": "Ones", "config": {}}, "moving_mean_initializer": {"class_name": "Zeros", "config": {}}, "moving_variance_initializer": {"class_name": "Ones", "config": {}}, "beta_regularizer": null, "gamma_regularizer": null, "beta_constraint": null, "gamma_constraint": null}, "inbound_nodes": [["conv2d_522", 0, 0, {}]]}, {"name": "batch_normalization_v1_527", "class_name": "BatchNormalizationV1", "config": {"name": "batch_normalization_v1_527", "trainable": false, "dtype": "float32", "axis": [3], "momentum": 0.99, "epsilon": 0.001, "center": true, "scale": false, "beta_initializer": {"class_name": "Zeros", "config": {}}, "gamma_initializer": {"class_name": "Ones", "config": {}}, "moving_mean_initializer": {"class_name": "Zeros", "config": {}}, "moving_variance_initializer": {"class_name": "Ones", "config": {}}, "beta_regularizer": null, "gamma_regularizer": null, "beta_constraint": null, "gamma_constraint": null}, "inbound_nodes": [["conv2d_527", 0, 0, {}]]}, {"name": "activation_522", "class_name": "Activation", "config": {"name": "activation_522", "trainable": false, "dtype": "float32", "activation": "relu"}, "inbound_nodes": [["batch_normalization_v1_522", 0, 0, {}]]}, {"name": "activation_527", "class_name": "Activation", "config": {"name": "activation_527", "trainable": false, "dtype": "float32", "activation": "relu"}, "inbound_nodes": [["batch_normalization_v1_527", 0, 0, {}]]}, {"name": "average_pooling2d_50", "class_name": "AveragePooling2D", "config": {"name": "average_pooling2d_50", "trainable": false, "dtype": "float32", "pool_size": [3, 3], "padding": "same", "strides": [1, 1], "data_format": "channels_last"}, "inbound_nodes": [["mixed5", 0, 0, {}]]}, {"name": "conv2d_520", "class_name": "Conv2D", "config": {"name": "conv2d_520", "trainable": false, "dtype": "float32", "filters": 192, "kernel_size": [1, 1], "strides": [1, 1], "padding": "same", "data_format": "channels_last", "dilation_rate": [1, 1], "activation": "linear", "use_bias": false, "kernel_initializer": {"class_name": "GlorotUniform", "config": {"seed": null}}, "bias_initializer": {"class_name": "Zeros", "config": {}}, "kernel_regularizer": null, "bias_regularizer": null, "activity_regularizer": null, "kernel_constraint": null, "bias_constraint": null}, "inbound_nodes": [["mixed5", 0, 0, {}]]}, {"name": "conv2d_523", "class_name": "Conv2D", "config": {"name": "conv2d_523", "trainable": false, "dtype": "float32", "filters": 192, "kernel_size": [7, 1], "strides": [1, 1], "padding": "same", "data_format": "channels_last", "dilation_rate": [1, 1], "activation": "linear", "use_bias": false, "kernel_initializer": {"class_name": "GlorotUniform", "config": {"seed": null}}, "bias_initializer": {"class_name": "Zeros", "config": {}}, "kernel_regularizer": null, "bias_regularizer": null, "activity_regularizer": null, "kernel_constraint": null, "bias_constraint": null}, "inbound_nodes": [["activation_522", 0, 0, {}]]}, {"name": "conv2d_528", "class_name": "Conv2D", "config": {"name": "conv2d_528", "trainable": false, "dtype": "float32", "filters": 192, "kernel_size": [1, 7], "strides": [1, 1], "padding": "same", "data_format": "channels_last", "dilation_rate": [1, 1], "activation": "linear", "use_bias": false, "kernel_initializer": {"class_name": "GlorotUniform", "config": {"seed": null}}, "bias_initializer": {"class_name": "Zeros", "config": {}}, "kernel_regularizer": null, "bias_regularizer": null, "activity_regularizer": null, "kernel_constraint": null, "bias_constraint": null}, "inbound_nodes": [["activation_527", 0, 0, {}]]}, {"name": "conv2d_529", "class_name": "Conv2D", "config": {"name": "conv2d_529", "trainable": false, "dtype": "float32", "filters": 192, "kernel_size": [1, 1], "strides": [1, 1], "padding": "same", "data_format": "channels_last", "dilation_rate": [1, 1], "activation": "linear", "use_bias": false, "kernel_initializer": {"class_name": "GlorotUniform", "config": {"seed": null}}, "bias_initializer": {"class_name": "Zeros", "config": {}}, "kernel_regularizer": null, "bias_regularizer": null, "activity_regularizer": null, "kernel_constraint": null, "bias_constraint": null}, "inbound_nodes": [["average_pooling2d_50", 0, 0, {}]]}, {"name": "batch_normalization_v1_520", "class_name": "BatchNormalizationV1", "config": {"name": "batch_normalization_v1_520", "trainable": false, "dtype": "float32", "axis": [3], "momentum": 0.99, "epsilon": 0.001, "center": true, "scale": false, "beta_initializer": {"class_name": "Zeros", "config": {}}, "gamma_initializer": {"class_name": "Ones", "config": {}}, "moving_mean_initializer": {"class_name": "Zeros", "config": {}}, "moving_variance_initializer": {"class_name": "Ones", "config": {}}, "beta_regularizer": null, "gamma_regularizer": null, "beta_constraint": null, "gamma_constraint": null}, "inbound_nodes": [["conv2d_520", 0, 0, {}]]}, {"name": "batch_normalization_v1_523", "class_name": "BatchNormalizationV1", "config": {"name": "batch_normalization_v1_523", "trainable": false, "dtype": "float32", "axis": [3], "momentum": 0.99, "epsilon": 0.001, "center": true, "scale": false, "beta_initializer": {"class_name": "Zeros", "config": {}}, "gamma_initializer": {"class_name": "Ones", "config": {}}, "moving_mean_initializer": {"class_name": "Zeros", "config": {}}, "moving_variance_initializer": {"class_name": "Ones", "config": {}}, "beta_regularizer": null, "gamma_regularizer": null, "beta_constraint": null, "gamma_constraint": null}, "inbound_nodes": [["conv2d_523", 0, 0, {}]]}, {"name": "batch_normalization_v1_528", "class_name": "BatchNormalizationV1", "config": {"name": "batch_normalization_v1_528", "trainable": false, "dtype": "float32", "axis": [3], "momentum": 0.99, "epsilon": 0.001, "center": true, "scale": false, "beta_initializer": {"class_name": "Zeros", "config": {}}, "gamma_initializer": {"class_name": "Ones", "config": {}}, "moving_mean_initializer": {"class_name": "Zeros", "config": {}}, "moving_variance_initializer": {"class_name": "Ones", "config": {}}, "beta_regularizer": null, "gamma_regularizer": null, "beta_constraint": null, "gamma_constraint": null}, "inbound_nodes": [["conv2d_528", 0, 0, {}]]}, {"name": "batch_normalization_v1_529", "class_name": "BatchNormalizationV1", "config": {"name": "batch_normalization_v1_529", "trainable": false, "dtype": "float32", "axis": [3], "momentum": 0.99, "epsilon": 0.001, "center": true, "scale": false, "beta_initializer": {"class_name": "Zeros", "config": {}}, "gamma_initializer": {"class_name": "Ones", "config": {}}, "moving_mean_initializer": {"class_name": "Zeros", "config": {}}, "moving_variance_initializer": {"class_name": "Ones", "config": {}}, "beta_regularizer": null, "gamma_regularizer": null, "beta_constraint": null, "gamma_constraint": null}, "inbound_nodes": [["conv2d_529", 0, 0, {}]]}, {"name": "activation_520", "class_name": "Activation", "config": {"name": "activation_520", "trainable": false, "dtype": "float32", "activation": "relu"}, "inbound_nodes": [["batch_normalization_v1_520", 0, 0, {}]]}, {"name": "activation_523", "class_name": "Activation", "config": {"name": "activation_523", "trainable": false, "dtype": "float32", "activation": "relu"}, "inbound_nodes": [["batch_normalization_v1_523", 0, 0, {}]]}, {"name": "activation_528", "class_name": "Activation", "config": {"name": "activation_528", "trainable": false, "dtype": "float32", "activation": "relu"}, "inbound_nodes": [["batch_normalization_v1_528", 0, 0, {}]]}, {"name": "activation_529", "class_name": "Activation", "config": {"name": "activation_529", "trainable": false, "dtype": "float32", "activation": "relu"}, "inbound_nodes": [["batch_normalization_v1_529", 0, 0, {}]]}, {"name": "mixed6", "class_name": "Concatenate", "config": {"name": "mixed6", "trainable": false, "dtype": "float32", "axis": 3}, "inbound_nodes": [[["activation_520", 0, 0, {}], ["activation_523", 0, 0, {}], ["activation_528", 0, 0, {}], ["activation_529", 0, 0, {}]]]}, {"name": "conv2d_534", "class_name": "Conv2D", "config": {"name": "conv2d_534", "trainable": false, "dtype": "float32", "filters": 192, "kernel_size": [1, 1], "strides": [1, 1], "padding": "same", "data_format": "channels_last", "dilation_rate": [1, 1], "activation": "linear", "use_bias": false, "kernel_initializer": {"class_name": "GlorotUniform", "config": {"seed": null}}, "bias_initializer": {"class_name": "Zeros", "config": {}}, "kernel_regularizer": null, "bias_regularizer": null, "activity_regularizer": null, "kernel_constraint": null, "bias_constraint": null}, "inbound_nodes": [["mixed6", 0, 0, {}]]}, {"name": "batch_normalization_v1_534", "class_name": "BatchNormalizationV1", "config": {"name": "batch_normalization_v1_534", "trainable": false, "dtype": "float32", "axis": [3], "momentum": 0.99, "epsilon": 0.001, "center": true, "scale": false, "beta_initializer": {"class_name": "Zeros", "config": {}}, "gamma_initializer": {"class_name": "Ones", "config": {}}, "moving_mean_initializer": {"class_name": "Zeros", "config": {}}, "moving_variance_initializer": {"class_name": "Ones", "config": {}}, "beta_regularizer": null, "gamma_regularizer": null, "beta_constraint": null, "gamma_constraint": null}, "inbound_nodes": [["conv2d_534", 0, 0, {}]]}, {"name": "activation_534", "class_name": "Activation", "config": {"name": "activation_534", "trainable": false, "dtype": "float32", "activation": "relu"}, "inbound_nodes": [["batch_normalization_v1_534", 0, 0, {}]]}, {"name": "conv2d_535", "class_name": "Conv2D", "config": {"name": "conv2d_535", "trainable": false, "dtype": "float32", "filters": 192, "kernel_size": [7, 1], "strides": [1, 1], "padding": "same", "data_format": "channels_last", "dilation_rate": [1, 1], "activation": "linear", "use_bias": false, "kernel_initializer": {"class_name": "GlorotUniform", "config": {"seed": null}}, "bias_initializer": {"class_name": "Zeros", "config": {}}, "kernel_regularizer": null, "bias_regularizer": null, "activity_regularizer": null, "kernel_constraint": null, "bias_constraint": null}, "inbound_nodes": [["activation_534", 0, 0, {}]]}, {"name": "batch_normalization_v1_535", "class_name": "BatchNormalizationV1", "config": {"name": "batch_normalization_v1_535", "trainable": false, "dtype": "float32", "axis": [3], "momentum": 0.99, "epsilon": 0.001, "center": true, "scale": false, "beta_initializer": {"class_name": "Zeros", "config": {}}, "gamma_initializer": {"class_name": "Ones", "config": {}}, "moving_mean_initializer": {"class_name": "Zeros", "config": {}}, "moving_variance_initializer": {"class_name": "Ones", "config": {}}, "beta_regularizer": null, "gamma_regularizer": null, "beta_constraint": null, "gamma_constraint": null}, "inbound_nodes": [["conv2d_535", 0, 0, {}]]}, {"name": "activation_535", "class_name": "Activation", "config": {"name": "activation_535", "trainable": false, "dtype": "float32", "activation": "relu"}, "inbound_nodes": [["batch_normalization_v1_535", 0, 0, {}]]}, {"name": "conv2d_531", "class_name": "Conv2D", "config": {"name": "conv2d_531", "trainable": false, "dtype": "float32", "filters": 192, "kernel_size": [1, 1], "strides": [1, 1], "padding": "same", "data_format": "channels_last", "dilation_rate": [1, 1], "activation": "linear", "use_bias": false, "kernel_initializer": {"class_name": "GlorotUniform", "config": {"seed": null}}, "bias_initializer": {"class_name": "Zeros", "config": {}}, "kernel_regularizer": null, "bias_regularizer": null, "activity_regularizer": null, "kernel_constraint": null, "bias_constraint": null}, "inbound_nodes": [["mixed6", 0, 0, {}]]}, {"name": "conv2d_536", "class_name": "Conv2D", "config": {"name": "conv2d_536", "trainable": false, "dtype": "float32", "filters": 192, "kernel_size": [1, 7], "strides": [1, 1], "padding": "same", "data_format": "channels_last", "dilation_rate": [1, 1], "activation": "linear", "use_bias": false, "kernel_initializer": {"class_name": "GlorotUniform", "config": {"seed": null}}, "bias_initializer": {"class_name": "Zeros", "config": {}}, "kernel_regularizer": null, "bias_regularizer": null, "activity_regularizer": null, "kernel_constraint": null, "bias_constraint": null}, "inbound_nodes": [["activation_535", 0, 0, {}]]}, {"name": "batch_normalization_v1_531", "class_name": "BatchNormalizationV1", "config": {"name": "batch_normalization_v1_531", "trainable": false, "dtype": "float32", "axis": [3], "momentum": 0.99, "epsilon": 0.001, "center": true, "scale": false, "beta_initializer": {"class_name": "Zeros", "config": {}}, "gamma_initializer": {"class_name": "Ones", "config": {}}, "moving_mean_initializer": {"class_name": "Zeros", "config": {}}, "moving_variance_initializer": {"class_name": "Ones", "config": {}}, "beta_regularizer": null, "gamma_regularizer": null, "beta_constraint": null, "gamma_constraint": null}, "inbound_nodes": [["conv2d_531", 0, 0, {}]]}, {"name": "batch_normalization_v1_536", "class_name": "BatchNormalizationV1", "config": {"name": "batch_normalization_v1_536", "trainable": false, "dtype": "float32", "axis": [3], "momentum": 0.99, "epsilon": 0.001, "center": true, "scale": false, "beta_initializer": {"class_name": "Zeros", "config": {}}, "gamma_initializer": {"class_name": "Ones", "config": {}}, "moving_mean_initializer": {"class_name": "Zeros", "config": {}}, "moving_variance_initializer": {"class_name": "Ones", "config": {}}, "beta_regularizer": null, "gamma_regularizer": null, "beta_constraint": null, "gamma_constraint": null}, "inbound_nodes": [["conv2d_536", 0, 0, {}]]}, {"name": "activation_531", "class_name": "Activation", "config": {"name": "activation_531", "trainable": false, "dtype": "float32", "activation": "relu"}, "inbound_nodes": [["batch_normalization_v1_531", 0, 0, {}]]}, {"name": "activation_536", "class_name": "Activation", "config": {"name": "activation_536", "trainable": false, "dtype": "float32", "activation": "relu"}, "inbound_nodes": [["batch_normalization_v1_536", 0, 0, {}]]}, {"name": "conv2d_532", "class_name": "Conv2D", "config": {"name": "conv2d_532", "trainable": false, "dtype": "float32", "filters": 192, "kernel_size": [1, 7], "strides": [1, 1], "padding": "same", "data_format": "channels_last", "dilation_rate": [1, 1], "activation": "linear", "use_bias": false, "kernel_initializer": {"class_name": "GlorotUniform", "config": {"seed": null}}, "bias_initializer": {"class_name": "Zeros", "config": {}}, "kernel_regularizer": null, "bias_regularizer": null, "activity_regularizer": null, "kernel_constraint": null, "bias_constraint": null}, "inbound_nodes": [["activation_531", 0, 0, {}]]}, {"name": "conv2d_537", "class_name": "Conv2D", "config": {"name": "conv2d_537", "trainable": false, "dtype": "float32", "filters": 192, "kernel_size": [7, 1], "strides": [1, 1], "padding": "same", "data_format": "channels_last", "dilation_rate": [1, 1], "activation": "linear", "use_bias": false, "kernel_initializer": {"class_name": "GlorotUniform", "config": {"seed": null}}, "bias_initializer": {"class_name": "Zeros", "config": {}}, "kernel_regularizer": null, "bias_regularizer": null, "activity_regularizer": null, "kernel_constraint": null, "bias_constraint": null}, "inbound_nodes": [["activation_536", 0, 0, {}]]}, {"name": "batch_normalization_v1_532", "class_name": "BatchNormalizationV1", "config": {"name": "batch_normalization_v1_532", "trainable": false, "dtype": "float32", "axis": [3], "momentum": 0.99, "epsilon": 0.001, "center": true, "scale": false, "beta_initializer": {"class_name": "Zeros", "config": {}}, "gamma_initializer": {"class_name": "Ones", "config": {}}, "moving_mean_initializer": {"class_name": "Zeros", "config": {}}, "moving_variance_initializer": {"class_name": "Ones", "config": {}}, "beta_regularizer": null, "gamma_regularizer": null, "beta_constraint": null, "gamma_constraint": null}, "inbound_nodes": [["conv2d_532", 0, 0, {}]]}, {"name": "batch_normalization_v1_537", "class_name": "BatchNormalizationV1", "config": {"name": "batch_normalization_v1_537", "trainable": false, "dtype": "float32", "axis": [3], "momentum": 0.99, "epsilon": 0.001, "center": true, "scale": false, "beta_initializer": {"class_name": "Zeros", "config": {}}, "gamma_initializer": {"class_name": "Ones", "config": {}}, "moving_mean_initializer": {"class_name": "Zeros", "config": {}}, "moving_variance_initializer": {"class_name": "Ones", "config": {}}, "beta_regularizer": null, "gamma_regularizer": null, "beta_constraint": null, "gamma_constraint": null}, "inbound_nodes": [["conv2d_537", 0, 0, {}]]}, {"name": "activation_532", "class_name": "Activation", "config": {"name": "activation_532", "trainable": false, "dtype": "float32", "activation": "relu"}, "inbound_nodes": [["batch_normalization_v1_532", 0, 0, {}]]}, {"name": "activation_537", "class_name": "Activation", "config": {"name": "activation_537", "trainable": false, "dtype": "float32", "activation": "relu"}, "inbound_nodes": [["batch_normalization_v1_537", 0, 0, {}]]}, {"name": "average_pooling2d_51", "class_name": "AveragePooling2D", "config": {"name": "average_pooling2d_51", "trainable": false, "dtype": "float32", "pool_size": [3, 3], "padding": "same", "strides": [1, 1], "data_format": "channels_last"}, "inbound_nodes": [["mixed6", 0, 0, {}]]}, {"name": "conv2d_530", "class_name": "Conv2D", "config": {"name": "conv2d_530", "trainable": false, "dtype": "float32", "filters": 192, "kernel_size": [1, 1], "strides": [1, 1], "padding": "same", "data_format": "channels_last", "dilation_rate": [1, 1], "activation": "linear", "use_bias": false, "kernel_initializer": {"class_name": "GlorotUniform", "config": {"seed": null}}, "bias_initializer": {"class_name": "Zeros", "config": {}}, "kernel_regularizer": null, "bias_regularizer": null, "activity_regularizer": null, "kernel_constraint": null, "bias_constraint": null}, "inbound_nodes": [["mixed6", 0, 0, {}]]}, {"name": "conv2d_533", "class_name": "Conv2D", "config": {"name": "conv2d_533", "trainable": false, "dtype": "float32", "filters": 192, "kernel_size": [7, 1], "strides": [1, 1], "padding": "same", "data_format": "channels_last", "dilation_rate": [1, 1], "activation": "linear", "use_bias": false, "kernel_initializer": {"class_name": "GlorotUniform", "config": {"seed": null}}, "bias_initializer": {"class_name": "Zeros", "config": {}}, "kernel_regularizer": null, "bias_regularizer": null, "activity_regularizer": null, "kernel_constraint": null, "bias_constraint": null}, "inbound_nodes": [["activation_532", 0, 0, {}]]}, {"name": "conv2d_538", "class_name": "Conv2D", "config": {"name": "conv2d_538", "trainable": false, "dtype": "float32", "filters": 192, "kernel_size": [1, 7], "strides": [1, 1], "padding": "same", "data_format": "channels_last", "dilation_rate": [1, 1], "activation": "linear", "use_bias": false, "kernel_initializer": {"class_name": "GlorotUniform", "config": {"seed": null}}, "bias_initializer": {"class_name": "Zeros", "config": {}}, "kernel_regularizer": null, "bias_regularizer": null, "activity_regularizer": null, "kernel_constraint": null, "bias_constraint": null}, "inbound_nodes": [["activation_537", 0, 0, {}]]}, {"name": "conv2d_539", "class_name": "Conv2D", "config": {"name": "conv2d_539", "trainable": false, "dtype": "float32", "filters": 192, "kernel_size": [1, 1], "strides": [1, 1], "padding": "same", "data_format": "channels_last", "dilation_rate": [1, 1], "activation": "linear", "use_bias": false, "kernel_initializer": {"class_name": "GlorotUniform", "config": {"seed": null}}, "bias_initializer": {"class_name": "Zeros", "config": {}}, "kernel_regularizer": null, "bias_regularizer": null, "activity_regularizer": null, "kernel_constraint": null, "bias_constraint": null}, "inbound_nodes": [["average_pooling2d_51", 0, 0, {}]]}, {"name": "batch_normalization_v1_530", "class_name": "BatchNormalizationV1", "config": {"name": "batch_normalization_v1_530", "trainable": false, "dtype": "float32", "axis": [3], "momentum": 0.99, "epsilon": 0.001, "center": true, "scale": false, "beta_initializer": {"class_name": "Zeros", "config": {}}, "gamma_initializer": {"class_name": "Ones", "config": {}}, "moving_mean_initializer": {"class_name": "Zeros", "config": {}}, "moving_variance_initializer": {"class_name": "Ones", "config": {}}, "beta_regularizer": null, "gamma_regularizer": null, "beta_constraint": null, "gamma_constraint": null}, "inbound_nodes": [["conv2d_530", 0, 0, {}]]}, {"name": "batch_normalization_v1_533", "class_name": "BatchNormalizationV1", "config": {"name": "batch_normalization_v1_533", "trainable": false, "dtype": "float32", "axis": [3], "momentum": 0.99, "epsilon": 0.001, "center": true, "scale": false, "beta_initializer": {"class_name": "Zeros", "config": {}}, "gamma_initializer": {"class_name": "Ones", "config": {}}, "moving_mean_initializer": {"class_name": "Zeros", "config": {}}, "moving_variance_initializer": {"class_name": "Ones", "config": {}}, "beta_regularizer": null, "gamma_regularizer": null, "beta_constraint": null, "gamma_constraint": null}, "inbound_nodes": [["conv2d_533", 0, 0, {}]]}, {"name": "batch_normalization_v1_538", "class_name": "BatchNormalizationV1", "config": {"name": "batch_normalization_v1_538", "trainable": false, "dtype": "float32", "axis": [3], "momentum": 0.99, "epsilon": 0.001, "center": true, "scale": false, "beta_initializer": {"class_name": "Zeros", "config": {}}, "gamma_initializer": {"class_name": "Ones", "config": {}}, "moving_mean_initializer": {"class_name": "Zeros", "config": {}}, "moving_variance_initializer": {"class_name": "Ones", "config": {}}, "beta_regularizer": null, "gamma_regularizer": null, "beta_constraint": null, "gamma_constraint": null}, "inbound_nodes": [["conv2d_538", 0, 0, {}]]}, {"name": "batch_normalization_v1_539", "class_name": "BatchNormalizationV1", "config": {"name": "batch_normalization_v1_539", "trainable": false, "dtype": "float32", "axis": [3], "momentum": 0.99, "epsilon": 0.001, "center": true, "scale": false, "beta_initializer": {"class_name": "Zeros", "config": {}}, "gamma_initializer": {"class_name": "Ones", "config": {}}, "moving_mean_initializer": {"class_name": "Zeros", "config": {}}, "moving_variance_initializer": {"class_name": "Ones", "config": {}}, "beta_regularizer": null, "gamma_regularizer": null, "beta_constraint": null, "gamma_constraint": null}, "inbound_nodes": [["conv2d_539", 0, 0, {}]]}, {"name": "activation_530", "class_name": "Activation", "config": {"name": "activation_530", "trainable": false, "dtype": "float32", "activation": "relu"}, "inbound_nodes": [["batch_normalization_v1_530", 0, 0, {}]]}, {"name": "activation_533", "class_name": "Activation", "config": {"name": "activation_533", "trainable": false, "dtype": "float32", "activation": "relu"}, "inbound_nodes": [["batch_normalization_v1_533", 0, 0, {}]]}, {"name": "activation_538", "class_name": "Activation", "config": {"name": "activation_538", "trainable": false, "dtype": "float32", "activation": "relu"}, "inbound_nodes": [["batch_normalization_v1_538", 0, 0, {}]]}, {"name": "activation_539", "class_name": "Activation", "config": {"name": "activation_539", "trainable": false, "dtype": "float32", "activation": "relu"}, "inbound_nodes": [["batch_normalization_v1_539", 0, 0, {}]]}, {"name": "mixed7", "class_name": "Concatenate", "config": {"name": "mixed7", "trainable": false, "dtype": "float32", "axis": 3}, "inbound_nodes": [[["activation_530", 0, 0, {}], ["activation_533", 0, 0, {}], ["activation_538", 0, 0, {}], ["activation_539", 0, 0, {}]]]}, {"name": "conv2d_542", "class_name": "Conv2D", "config": {"name": "conv2d_542", "trainable": false, "dtype": "float32", "filters": 192, "kernel_size": [1, 1], "strides": [1, 1], "padding": "same", "data_format": "channels_last", "dilation_rate": [1, 1], "activation": "linear", "use_bias": false, "kernel_initializer": {"class_name": "GlorotUniform", "config": {"seed": null}}, "bias_initializer": {"class_name": "Zeros", "config": {}}, "kernel_regularizer": null, "bias_regularizer": null, "activity_regularizer": null, "kernel_constraint": null, "bias_constraint": null}, "inbound_nodes": [["mixed7", 0, 0, {}]]}, {"name": "batch_normalization_v1_542", "class_name": "BatchNormalizationV1", "config": {"name": "batch_normalization_v1_542", "trainable": false, "dtype": "float32", "axis": [3], "momentum": 0.99, "epsilon": 0.001, "center": true, "scale": false, "beta_initializer": {"class_name": "Zeros", "config": {}}, "gamma_initializer": {"class_name": "Ones", "config": {}}, "moving_mean_initializer": {"class_name": "Zeros", "config": {}}, "moving_variance_initializer": {"class_name": "Ones", "config": {}}, "beta_regularizer": null, "gamma_regularizer": null, "beta_constraint": null, "gamma_constraint": null}, "inbound_nodes": [["conv2d_542", 0, 0, {}]]}, {"name": "activation_542", "class_name": "Activation", "config": {"name": "activation_542", "trainable": false, "dtype": "float32", "activation": "relu"}, "inbound_nodes": [["batch_normalization_v1_542", 0, 0, {}]]}, {"name": "conv2d_543", "class_name": "Conv2D", "config": {"name": "conv2d_543", "trainable": false, "dtype": "float32", "filters": 192, "kernel_size": [1, 7], "strides": [1, 1], "padding": "same", "data_format": "channels_last", "dilation_rate": [1, 1], "activation": "linear", "use_bias": false, "kernel_initializer": {"class_name": "GlorotUniform", "config": {"seed": null}}, "bias_initializer": {"class_name": "Zeros", "config": {}}, "kernel_regularizer": null, "bias_regularizer": null, "activity_regularizer": null, "kernel_constraint": null, "bias_constraint": null}, "inbound_nodes": [["activation_542", 0, 0, {}]]}, {"name": "batch_normalization_v1_543", "class_name": "BatchNormalizationV1", "config": {"name": "batch_normalization_v1_543", "trainable": false, "dtype": "float32", "axis": [3], "momentum": 0.99, "epsilon": 0.001, "center": true, "scale": false, "beta_initializer": {"class_name": "Zeros", "config": {}}, "gamma_initializer": {"class_name": "Ones", "config": {}}, "moving_mean_initializer": {"class_name": "Zeros", "config": {}}, "moving_variance_initializer": {"class_name": "Ones", "config": {}}, "beta_regularizer": null, "gamma_regularizer": null, "beta_constraint": null, "gamma_constraint": null}, "inbound_nodes": [["conv2d_543", 0, 0, {}]]}, {"name": "activation_543", "class_name": "Activation", "config": {"name": "activation_543", "trainable": false, "dtype": "float32", "activation": "relu"}, "inbound_nodes": [["batch_normalization_v1_543", 0, 0, {}]]}, {"name": "conv2d_540", "class_name": "Conv2D", "config": {"name": "conv2d_540", "trainable": false, "dtype": "float32", "filters": 192, "kernel_size": [1, 1], "strides": [1, 1], "padding": "same", "data_format": "channels_last", "dilation_rate": [1, 1], "activation": "linear", "use_bias": false, "kernel_initializer": {"class_name": "GlorotUniform", "config": {"seed": null}}, "bias_initializer": {"class_name": "Zeros", "config": {}}, "kernel_regularizer": null, "bias_regularizer": null, "activity_regularizer": null, "kernel_constraint": null, "bias_constraint": null}, "inbound_nodes": [["mixed7", 0, 0, {}]]}, {"name": "conv2d_544", "class_name": "Conv2D", "config": {"name": "conv2d_544", "trainable": false, "dtype": "float32", "filters": 192, "kernel_size": [7, 1], "strides": [1, 1], "padding": "same", "data_format": "channels_last", "dilation_rate": [1, 1], "activation": "linear", "use_bias": false, "kernel_initializer": {"class_name": "GlorotUniform", "config": {"seed": null}}, "bias_initializer": {"class_name": "Zeros", "config": {}}, "kernel_regularizer": null, "bias_regularizer": null, "activity_regularizer": null, "kernel_constraint": null, "bias_constraint": null}, "inbound_nodes": [["activation_543", 0, 0, {}]]}, {"name": "batch_normalization_v1_540", "class_name": "BatchNormalizationV1", "config": {"name": "batch_normalization_v1_540", "trainable": false, "dtype": "float32", "axis": [3], "momentum": 0.99, "epsilon": 0.001, "center": true, "scale": false, "beta_initializer": {"class_name": "Zeros", "config": {}}, "gamma_initializer": {"class_name": "Ones", "config": {}}, "moving_mean_initializer": {"class_name": "Zeros", "config": {}}, "moving_variance_initializer": {"class_name": "Ones", "config": {}}, "beta_regularizer": null, "gamma_regularizer": null, "beta_constraint": null, "gamma_constraint": null}, "inbound_nodes": [["conv2d_540", 0, 0, {}]]}, {"name": "batch_normalization_v1_544", "class_name": "BatchNormalizationV1", "config": {"name": "batch_normalization_v1_544", "trainable": false, "dtype": "float32", "axis": [3], "momentum": 0.99, "epsilon": 0.001, "center": true, "scale": false, "beta_initializer": {"class_name": "Zeros", "config": {}}, "gamma_initializer": {"class_name": "Ones", "config": {}}, "moving_mean_initializer": {"class_name": "Zeros", "config": {}}, "moving_variance_initializer": {"class_name": "Ones", "config": {}}, "beta_regularizer": null, "gamma_regularizer": null, "beta_constraint": null, "gamma_constraint": null}, "inbound_nodes": [["conv2d_544", 0, 0, {}]]}, {"name": "activation_540", "class_name": "Activation", "config": {"name": "activation_540", "trainable": false, "dtype": "float32", "activation": "relu"}, "inbound_nodes": [["batch_normalization_v1_540", 0, 0, {}]]}, {"name": "activation_544", "class_name": "Activation", "config": {"name": "activation_544", "trainable": false, "dtype": "float32", "activation": "relu"}, "inbound_nodes": [["batch_normalization_v1_544", 0, 0, {}]]}, {"name": "conv2d_541", "class_name": "Conv2D", "config": {"name": "conv2d_541", "trainable": false, "dtype": "float32", "filters": 320, "kernel_size": [3, 3], "strides": [2, 2], "padding": "valid", "data_format": "channels_last", "dilation_rate": [1, 1], "activation": "linear", "use_bias": false, "kernel_initializer": {"class_name": "GlorotUniform", "config": {"seed": null}}, "bias_initializer": {"class_name": "Zeros", "config": {}}, "kernel_regularizer": null, "bias_regularizer": null, "activity_regularizer": null, "kernel_constraint": null, "bias_constraint": null}, "inbound_nodes": [["activation_540", 0, 0, {}]]}, {"name": "conv2d_545", "class_name": "Conv2D", "config": {"name": "conv2d_545", "trainable": false, "dtype": "float32", "filters": 192, "kernel_size": [3, 3], "strides": [2, 2], "padding": "valid", "data_format": "channels_last", "dilation_rate": [1, 1], "activation": "linear", "use_bias": false, "kernel_initializer": {"class_name": "GlorotUniform", "config": {"seed": null}}, "bias_initializer": {"class_name": "Zeros", "config": {}}, "kernel_regularizer": null, "bias_regularizer": null, "activity_regularizer": null, "kernel_constraint": null, "bias_constraint": null}, "inbound_nodes": [["activation_544", 0, 0, {}]]}, {"name": "batch_normalization_v1_541", "class_name": "BatchNormalizationV1", "config": {"name": "batch_normalization_v1_541", "trainable": false, "dtype": "float32", "axis": [3], "momentum": 0.99, "epsilon": 0.001, "center": true, "scale": false, "beta_initializer": {"class_name": "Zeros", "config": {}}, "gamma_initializer": {"class_name": "Ones", "config": {}}, "moving_mean_initializer": {"class_name": "Zeros", "config": {}}, "moving_variance_initializer": {"class_name": "Ones", "config": {}}, "beta_regularizer": null, "gamma_regularizer": null, "beta_constraint": null, "gamma_constraint": null}, "inbound_nodes": [["conv2d_541", 0, 0, {}]]}, {"name": "batch_normalization_v1_545", "class_name": "BatchNormalizationV1", "config": {"name": "batch_normalization_v1_545", "trainable": false, "dtype": "float32", "axis": [3], "momentum": 0.99, "epsilon": 0.001, "center": true, "scale": false, "beta_initializer": {"class_name": "Zeros", "config": {}}, "gamma_initializer": {"class_name": "Ones", "config": {}}, "moving_mean_initializer": {"class_name": "Zeros", "config": {}}, "moving_variance_initializer": {"class_name": "Ones", "config": {}}, "beta_regularizer": null, "gamma_regularizer": null, "beta_constraint": null, "gamma_constraint": null}, "inbound_nodes": [["conv2d_545", 0, 0, {}]]}, {"name": "activation_541", "class_name": "Activation", "config": {"name": "activation_541", "trainable": false, "dtype": "float32", "activation": "relu"}, "inbound_nodes": [["batch_normalization_v1_541", 0, 0, {}]]}, {"name": "activation_545", "class_name": "Activation", "config": {"name": "activation_545", "trainable": false, "dtype": "float32", "activation": "relu"}, "inbound_nodes": [["batch_normalization_v1_545", 0, 0, {}]]}, {"name": "max_pooling2d_23", "class_name": "MaxPooling2D", "config": {"name": "max_pooling2d_23", "trainable": false, "dtype": "float32", "pool_size": [3, 3], "padding": "valid", "strides": [2, 2], "data_format": "channels_last"}, "inbound_nodes": [["mixed7", 0, 0, {}]]}, {"name": "mixed8", "class_name": "Concatenate", "config": {"name": "mixed8", "trainable": false, "dtype": "float32", "axis": 3}, "inbound_nodes": [[["activation_541", 0, 0, {}], ["activation_545", 0, 0, {}], ["max_pooling2d_23", 0, 0, {}]]]}, {"name": "conv2d_550", "class_name": "Conv2D", "config": {"name": "conv2d_550", "trainable": false, "dtype": "float32", "filters": 448, "kernel_size": [1, 1], "strides": [1, 1], "padding": "same", "data_format": "channels_last", "dilation_rate": [1, 1], "activation": "linear", "use_bias": false, "kernel_initializer": {"class_name": "GlorotUniform", "config": {"seed": null}}, "bias_initializer": {"class_name": "Zeros", "config": {}}, "kernel_regularizer": null, "bias_regularizer": null, "activity_regularizer": null, "kernel_constraint": null, "bias_constraint": null}, "inbound_nodes": [["mixed8", 0, 0, {}]]}, {"name": "batch_normalization_v1_550", "class_name": "BatchNormalizationV1", "config": {"name": "batch_normalization_v1_550", "trainable": false, "dtype": "float32", "axis": [3], "momentum": 0.99, "epsilon": 0.001, "center": true, "scale": false, "beta_initializer": {"class_name": "Zeros", "config": {}}, "gamma_initializer": {"class_name": "Ones", "config": {}}, "moving_mean_initializer": {"class_name": "Zeros", "config": {}}, "moving_variance_initializer": {"class_name": "Ones", "config": {}}, "beta_regularizer": null, "gamma_regularizer": null, "beta_constraint": null, "gamma_constraint": null}, "inbound_nodes": [["conv2d_550", 0, 0, {}]]}, {"name": "activation_550", "class_name": "Activation", "config": {"name": "activation_550", "trainable": false, "dtype": "float32", "activation": "relu"}, "inbound_nodes": [["batch_normalization_v1_550", 0, 0, {}]]}, {"name": "conv2d_547", "class_name": "Conv2D", "config": {"name": "conv2d_547", "trainable": false, "dtype": "float32", "filters": 384, "kernel_size": [1, 1], "strides": [1, 1], "padding": "same", "data_format": "channels_last", "dilation_rate": [1, 1], "activation": "linear", "use_bias": false, "kernel_initializer": {"class_name": "GlorotUniform", "config": {"seed": null}}, "bias_initializer": {"class_name": "Zeros", "config": {}}, "kernel_regularizer": null, "bias_regularizer": null, "activity_regularizer": null, "kernel_constraint": null, "bias_constraint": null}, "inbound_nodes": [["mixed8", 0, 0, {}]]}, {"name": "conv2d_551", "class_name": "Conv2D", "config": {"name": "conv2d_551", "trainable": false, "dtype": "float32", "filters": 384, "kernel_size": [3, 3], "strides": [1, 1], "padding": "same", "data_format": "channels_last", "dilation_rate": [1, 1], "activation": "linear", "use_bias": false, "kernel_initializer": {"class_name": "GlorotUniform", "config": {"seed": null}}, "bias_initializer": {"class_name": "Zeros", "config": {}}, "kernel_regularizer": null, "bias_regularizer": null, "activity_regularizer": null, "kernel_constraint": null, "bias_constraint": null}, "inbound_nodes": [["activation_550", 0, 0, {}]]}, {"name": "batch_normalization_v1_547", "class_name": "BatchNormalizationV1", "config": {"name": "batch_normalization_v1_547", "trainable": false, "dtype": "float32", "axis": [3], "momentum": 0.99, "epsilon": 0.001, "center": true, "scale": false, "beta_initializer": {"class_name": "Zeros", "config": {}}, "gamma_initializer": {"class_name": "Ones", "config": {}}, "moving_mean_initializer": {"class_name": "Zeros", "config": {}}, "moving_variance_initializer": {"class_name": "Ones", "config": {}}, "beta_regularizer": null, "gamma_regularizer": null, "beta_constraint": null, "gamma_constraint": null}, "inbound_nodes": [["conv2d_547", 0, 0, {}]]}, {"name": "batch_normalization_v1_551", "class_name": "BatchNormalizationV1", "config": {"name": "batch_normalization_v1_551", "trainable": false, "dtype": "float32", "axis": [3], "momentum": 0.99, "epsilon": 0.001, "center": true, "scale": false, "beta_initializer": {"class_name": "Zeros", "config": {}}, "gamma_initializer": {"class_name": "Ones", "config": {}}, "moving_mean_initializer": {"class_name": "Zeros", "config": {}}, "moving_variance_initializer": {"class_name": "Ones", "config": {}}, "beta_regularizer": null, "gamma_regularizer": null, "beta_constraint": null, "gamma_constraint": null}, "inbound_nodes": [["conv2d_551", 0, 0, {}]]}, {"name": "activation_547", "class_name": "Activation", "config": {"name": "activation_547", "trainable": false, "dtype": "float32", "activation": "relu"}, "inbound_nodes": [["batch_normalization_v1_547", 0, 0, {}]]}, {"name": "activation_551", "class_name": "Activation", "config": {"name": "activation_551", "trainable": false, "dtype": "float32", "activation": "relu"}, "inbound_nodes": [["batch_normalization_v1_551", 0, 0, {}]]}, {"name": "conv2d_548", "class_name": "Conv2D", "config": {"name": "conv2d_548", "trainable": false, "dtype": "float32", "filters": 384, "kernel_size": [1, 3], "strides": [1, 1], "padding": "same", "data_format": "channels_last", "dilation_rate": [1, 1], "activation": "linear", "use_bias": false, "kernel_initializer": {"class_name": "GlorotUniform", "config": {"seed": null}}, "bias_initializer": {"class_name": "Zeros", "config": {}}, "kernel_regularizer": null, "bias_regularizer": null, "activity_regularizer": null, "kernel_constraint": null, "bias_constraint": null}, "inbound_nodes": [["activation_547", 0, 0, {}]]}, {"name": "conv2d_549", "class_name": "Conv2D", "config": {"name": "conv2d_549", "trainable": false, "dtype": "float32", "filters": 384, "kernel_size": [3, 1], "strides": [1, 1], "padding": "same", "data_format": "channels_last", "dilation_rate": [1, 1], "activation": "linear", "use_bias": false, "kernel_initializer": {"class_name": "GlorotUniform", "config": {"seed": null}}, "bias_initializer": {"class_name": "Zeros", "config": {}}, "kernel_regularizer": null, "bias_regularizer": null, "activity_regularizer": null, "kernel_constraint": null, "bias_constraint": null}, "inbound_nodes": [["activation_547", 0, 0, {}]]}, {"name": "conv2d_552", "class_name": "Conv2D", "config": {"name": "conv2d_552", "trainable": false, "dtype": "float32", "filters": 384, "kernel_size": [1, 3], "strides": [1, 1], "padding": "same", "data_format": "channels_last", "dilation_rate": [1, 1], "activation": "linear", "use_bias": false, "kernel_initializer": {"class_name": "GlorotUniform", "config": {"seed": null}}, "bias_initializer": {"class_name": "Zeros", "config": {}}, "kernel_regularizer": null, "bias_regularizer": null, "activity_regularizer": null, "kernel_constraint": null, "bias_constraint": null}, "inbound_nodes": [["activation_551", 0, 0, {}]]}, {"name": "conv2d_553", "class_name": "Conv2D", "config": {"name": "conv2d_553", "trainable": false, "dtype": "float32", "filters": 384, "kernel_size": [3, 1], "strides": [1, 1], "padding": "same", "data_format": "channels_last", "dilation_rate": [1, 1], "activation": "linear", "use_bias": false, "kernel_initializer": {"class_name": "GlorotUniform", "config": {"seed": null}}, "bias_initializer": {"class_name": "Zeros", "config": {}}, "kernel_regularizer": null, "bias_regularizer": null, "activity_regularizer": null, "kernel_constraint": null, "bias_constraint": null}, "inbound_nodes": [["activation_551", 0, 0, {}]]}, {"name": "average_pooling2d_52", "class_name": "AveragePooling2D", "config": {"name": "average_pooling2d_52", "trainable": false, "dtype": "float32", "pool_size": [3, 3], "padding": "same", "strides": [1, 1], "data_format": "channels_last"}, "inbound_nodes": [["mixed8", 0, 0, {}]]}, {"name": "conv2d_546", "class_name": "Conv2D", "config": {"name": "conv2d_546", "trainable": false, "dtype": "float32", "filters": 320, "kernel_size": [1, 1], "strides": [1, 1], "padding": "same", "data_format": "channels_last", "dilation_rate": [1, 1], "activation": "linear", "use_bias": false, "kernel_initializer": {"class_name": "GlorotUniform", "config": {"seed": null}}, "bias_initializer": {"class_name": "Zeros", "config": {}}, "kernel_regularizer": null, "bias_regularizer": null, "activity_regularizer": null, "kernel_constraint": null, "bias_constraint": null}, "inbound_nodes": [["mixed8", 0, 0, {}]]}, {"name": "batch_normalization_v1_548", "class_name": "BatchNormalizationV1", "config": {"name": "batch_normalization_v1_548", "trainable": false, "dtype": "float32", "axis": [3], "momentum": 0.99, "epsilon": 0.001, "center": true, "scale": false, "beta_initializer": {"class_name": "Zeros", "config": {}}, "gamma_initializer": {"class_name": "Ones", "config": {}}, "moving_mean_initializer": {"class_name": "Zeros", "config": {}}, "moving_variance_initializer": {"class_name": "Ones", "config": {}}, "beta_regularizer": null, "gamma_regularizer": null, "beta_constraint": null, "gamma_constraint": null}, "inbound_nodes": [["conv2d_548", 0, 0, {}]]}, {"name": "batch_normalization_v1_549", "class_name": "BatchNormalizationV1", "config": {"name": "batch_normalization_v1_549", "trainable": false, "dtype": "float32", "axis": [3], "momentum": 0.99, "epsilon": 0.001, "center": true, "scale": false, "beta_initializer": {"class_name": "Zeros", "config": {}}, "gamma_initializer": {"class_name": "Ones", "config": {}}, "moving_mean_initializer": {"class_name": "Zeros", "config": {}}, "moving_variance_initializer": {"class_name": "Ones", "config": {}}, "beta_regularizer": null, "gamma_regularizer": null, "beta_constraint": null, "gamma_constraint": null}, "inbound_nodes": [["conv2d_549", 0, 0, {}]]}, {"name": "batch_normalization_v1_552", "class_name": "BatchNormalizationV1", "config": {"name": "batch_normalization_v1_552", "trainable": false, "dtype": "float32", "axis": [3], "momentum": 0.99, "epsilon": 0.001, "center": true, "scale": false, "beta_initializer": {"class_name": "Zeros", "config": {}}, "gamma_initializer": {"class_name": "Ones", "config": {}}, "moving_mean_initializer": {"class_name": "Zeros", "config": {}}, "moving_variance_initializer": {"class_name": "Ones", "config": {}}, "beta_regularizer": null, "gamma_regularizer": null, "beta_constraint": null, "gamma_constraint": null}, "inbound_nodes": [["conv2d_552", 0, 0, {}]]}, {"name": "batch_normalization_v1_553", "class_name": "BatchNormalizationV1", "config": {"name": "batch_normalization_v1_553", "trainable": false, "dtype": "float32", "axis": [3], "momentum": 0.99, "epsilon": 0.001, "center": true, "scale": false, "beta_initializer": {"class_name": "Zeros", "config": {}}, "gamma_initializer": {"class_name": "Ones", "config": {}}, "moving_mean_initializer": {"class_name": "Zeros", "config": {}}, "moving_variance_initializer": {"class_name": "Ones", "config": {}}, "beta_regularizer": null, "gamma_regularizer": null, "beta_constraint": null, "gamma_constraint": null}, "inbound_nodes": [["conv2d_553", 0, 0, {}]]}, {"name": "conv2d_554", "class_name": "Conv2D", "config": {"name": "conv2d_554", "trainable": false, "dtype": "float32", "filters": 192, "kernel_size": [1, 1], "strides": [1, 1], "padding": "same", "data_format": "channels_last", "dilation_rate": [1, 1], "activation": "linear", "use_bias": false, "kernel_initializer": {"class_name": "GlorotUniform", "config": {"seed": null}}, "bias_initializer": {"class_name": "Zeros", "config": {}}, "kernel_regularizer": null, "bias_regularizer": null, "activity_regularizer": null, "kernel_constraint": null, "bias_constraint": null}, "inbound_nodes": [["average_pooling2d_52", 0, 0, {}]]}, {"name": "batch_normalization_v1_546", "class_name": "BatchNormalizationV1", "config": {"name": "batch_normalization_v1_546", "trainable": false, "dtype": "float32", "axis": [3], "momentum": 0.99, "epsilon": 0.001, "center": true, "scale": false, "beta_initializer": {"class_name": "Zeros", "config": {}}, "gamma_initializer": {"class_name": "Ones", "config": {}}, "moving_mean_initializer": {"class_name": "Zeros", "config": {}}, "moving_variance_initializer": {"class_name": "Ones", "config": {}}, "beta_regularizer": null, "gamma_regularizer": null, "beta_constraint": null, "gamma_constraint": null}, "inbound_nodes": [["conv2d_546", 0, 0, {}]]}, {"name": "activation_548", "class_name": "Activation", "config": {"name": "activation_548", "trainable": false, "dtype": "float32", "activation": "relu"}, "inbound_nodes": [["batch_normalization_v1_548", 0, 0, {}]]}, {"name": "activation_549", "class_name": "Activation", "config": {"name": "activation_549", "trainable": false, "dtype": "float32", "activation": "relu"}, "inbound_nodes": [["batch_normalization_v1_549", 0, 0, {}]]}, {"name": "activation_552", "class_name": "Activation", "config": {"name": "activation_552", "trainable": false, "dtype": "float32", "activation": "relu"}, "inbound_nodes": [["batch_normalization_v1_552", 0, 0, {}]]}, {"name": "activation_553", "class_name": "Activation", "config": {"name": "activation_553", "trainable": false, "dtype": "float32", "activation": "relu"}, "inbound_nodes": [["batch_normalization_v1_553", 0, 0, {}]]}, {"name": "batch_normalization_v1_554", "class_name": "BatchNormalizationV1", "config": {"name": "batch_normalization_v1_554", "trainable": false, "dtype": "float32", "axis": [3], "momentum": 0.99, "epsilon": 0.001, "center": true, "scale": false, "beta_initializer": {"class_name": "Zeros", "config": {}}, "gamma_initializer": {"class_name": "Ones", "config": {}}, "moving_mean_initializer": {"class_name": "Zeros", "config": {}}, "moving_variance_initializer": {"class_name": "Ones", "config": {}}, "beta_regularizer": null, "gamma_regularizer": null, "beta_constraint": null, "gamma_constraint": null}, "inbound_nodes": [["conv2d_554", 0, 0, {}]]}, {"name": "activation_546", "class_name": "Activation", "config": {"name": "activation_546", "trainable": false, "dtype": "float32", "activation": "relu"}, "inbound_nodes": [["batch_normalization_v1_546", 0, 0, {}]]}, {"name": "mixed9_0", "class_name": "Concatenate", "config": {"name": "mixed9_0", "trainable": false, "dtype": "float32", "axis": 3}, "inbound_nodes": [[["activation_548", 0, 0, {}], ["activation_549", 0, 0, {}]]]}, {"name": "concatenate_10", "class_name": "Concatenate", "config": {"name": "concatenate_10", "trainable": false, "dtype": "float32", "axis": 3}, "inbound_nodes": [[["activation_552", 0, 0, {}], ["activation_553", 0, 0, {}]]]}, {"name": "activation_554", "class_name": "Activation", "config": {"name": "activation_554", "trainable": false, "dtype": "float32", "activation": "relu"}, "inbound_nodes": [["batch_normalization_v1_554", 0, 0, {}]]}, {"name": "mixed9", "class_name": "Concatenate", "config": {"name": "mixed9", "trainable": false, "dtype": "float32", "axis": 3}, "inbound_nodes": [[["activation_546", 0, 0, {}], ["mixed9_0", 0, 0, {}], ["concatenate_10", 0, 0, {}], ["activation_554", 0, 0, {}]]]}, {"name": "conv2d_559", "class_name": "Conv2D", "config": {"name": "conv2d_559", "trainable": false, "dtype": "float32", "filters": 448, "kernel_size": [1, 1], "strides": [1, 1], "padding": "same", "data_format": "channels_last", "dilation_rate": [1, 1], "activation": "linear", "use_bias": false, "kernel_initializer": {"class_name": "GlorotUniform", "config": {"seed": null}}, "bias_initializer": {"class_name": "Zeros", "config": {}}, "kernel_regularizer": null, "bias_regularizer": null, "activity_regularizer": null, "kernel_constraint": null, "bias_constraint": null}, "inbound_nodes": [["mixed9", 0, 0, {}]]}, {"name": "batch_normalization_v1_559", "class_name": "BatchNormalizationV1", "config": {"name": "batch_normalization_v1_559", "trainable": false, "dtype": "float32", "axis": [3], "momentum": 0.99, "epsilon": 0.001, "center": true, "scale": false, "beta_initializer": {"class_name": "Zeros", "config": {}}, "gamma_initializer": {"class_name": "Ones", "config": {}}, "moving_mean_initializer": {"class_name": "Zeros", "config": {}}, "moving_variance_initializer": {"class_name": "Ones", "config": {}}, "beta_regularizer": null, "gamma_regularizer": null, "beta_constraint": null, "gamma_constraint": null}, "inbound_nodes": [["conv2d_559", 0, 0, {}]]}, {"name": "activation_559", "class_name": "Activation", "config": {"name": "activation_559", "trainable": false, "dtype": "float32", "activation": "relu"}, "inbound_nodes": [["batch_normalization_v1_559", 0, 0, {}]]}, {"name": "conv2d_556", "class_name": "Conv2D", "config": {"name": "conv2d_556", "trainable": false, "dtype": "float32", "filters": 384, "kernel_size": [1, 1], "strides": [1, 1], "padding": "same", "data_format": "channels_last", "dilation_rate": [1, 1], "activation": "linear", "use_bias": false, "kernel_initializer": {"class_name": "GlorotUniform", "config": {"seed": null}}, "bias_initializer": {"class_name": "Zeros", "config": {}}, "kernel_regularizer": null, "bias_regularizer": null, "activity_regularizer": null, "kernel_constraint": null, "bias_constraint": null}, "inbound_nodes": [["mixed9", 0, 0, {}]]}, {"name": "conv2d_560", "class_name": "Conv2D", "config": {"name": "conv2d_560", "trainable": false, "dtype": "float32", "filters": 384, "kernel_size": [3, 3], "strides": [1, 1], "padding": "same", "data_format": "channels_last", "dilation_rate": [1, 1], "activation": "linear", "use_bias": false, "kernel_initializer": {"class_name": "GlorotUniform", "config": {"seed": null}}, "bias_initializer": {"class_name": "Zeros", "config": {}}, "kernel_regularizer": null, "bias_regularizer": null, "activity_regularizer": null, "kernel_constraint": null, "bias_constraint": null}, "inbound_nodes": [["activation_559", 0, 0, {}]]}, {"name": "batch_normalization_v1_556", "class_name": "BatchNormalizationV1", "config": {"name": "batch_normalization_v1_556", "trainable": false, "dtype": "float32", "axis": [3], "momentum": 0.99, "epsilon": 0.001, "center": true, "scale": false, "beta_initializer": {"class_name": "Zeros", "config": {}}, "gamma_initializer": {"class_name": "Ones", "config": {}}, "moving_mean_initializer": {"class_name": "Zeros", "config": {}}, "moving_variance_initializer": {"class_name": "Ones", "config": {}}, "beta_regularizer": null, "gamma_regularizer": null, "beta_constraint": null, "gamma_constraint": null}, "inbound_nodes": [["conv2d_556", 0, 0, {}]]}, {"name": "batch_normalization_v1_560", "class_name": "BatchNormalizationV1", "config": {"name": "batch_normalization_v1_560", "trainable": false, "dtype": "float32", "axis": [3], "momentum": 0.99, "epsilon": 0.001, "center": true, "scale": false, "beta_initializer": {"class_name": "Zeros", "config": {}}, "gamma_initializer": {"class_name": "Ones", "config": {}}, "moving_mean_initializer": {"class_name": "Zeros", "config": {}}, "moving_variance_initializer": {"class_name": "Ones", "config": {}}, "beta_regularizer": null, "gamma_regularizer": null, "beta_constraint": null, "gamma_constraint": null}, "inbound_nodes": [["conv2d_560", 0, 0, {}]]}, {"name": "activation_556", "class_name": "Activation", "config": {"name": "activation_556", "trainable": false, "dtype": "float32", "activation": "relu"}, "inbound_nodes": [["batch_normalization_v1_556", 0, 0, {}]]}, {"name": "activation_560", "class_name": "Activation", "config": {"name": "activation_560", "trainable": false, "dtype": "float32", "activation": "relu"}, "inbound_nodes": [["batch_normalization_v1_560", 0, 0, {}]]}, {"name": "conv2d_557", "class_name": "Conv2D", "config": {"name": "conv2d_557", "trainable": false, "dtype": "float32", "filters": 384, "kernel_size": [1, 3], "strides": [1, 1], "padding": "same", "data_format": "channels_last", "dilation_rate": [1, 1], "activation": "linear", "use_bias": false, "kernel_initializer": {"class_name": "GlorotUniform", "config": {"seed": null}}, "bias_initializer": {"class_name": "Zeros", "config": {}}, "kernel_regularizer": null, "bias_regularizer": null, "activity_regularizer": null, "kernel_constraint": null, "bias_constraint": null}, "inbound_nodes": [["activation_556", 0, 0, {}]]}, {"name": "conv2d_558", "class_name": "Conv2D", "config": {"name": "conv2d_558", "trainable": false, "dtype": "float32", "filters": 384, "kernel_size": [3, 1], "strides": [1, 1], "padding": "same", "data_format": "channels_last", "dilation_rate": [1, 1], "activation": "linear", "use_bias": false, "kernel_initializer": {"class_name": "GlorotUniform", "config": {"seed": null}}, "bias_initializer": {"class_name": "Zeros", "config": {}}, "kernel_regularizer": null, "bias_regularizer": null, "activity_regularizer": null, "kernel_constraint": null, "bias_constraint": null}, "inbound_nodes": [["activation_556", 0, 0, {}]]}, {"name": "conv2d_561", "class_name": "Conv2D", "config": {"name": "conv2d_561", "trainable": false, "dtype": "float32", "filters": 384, "kernel_size": [1, 3], "strides": [1, 1], "padding": "same", "data_format": "channels_last", "dilation_rate": [1, 1], "activation": "linear", "use_bias": false, "kernel_initializer": {"class_name": "GlorotUniform", "config": {"seed": null}}, "bias_initializer": {"class_name": "Zeros", "config": {}}, "kernel_regularizer": null, "bias_regularizer": null, "activity_regularizer": null, "kernel_constraint": null, "bias_constraint": null}, "inbound_nodes": [["activation_560", 0, 0, {}]]}, {"name": "conv2d_562", "class_name": "Conv2D", "config": {"name": "conv2d_562", "trainable": false, "dtype": "float32", "filters": 384, "kernel_size": [3, 1], "strides": [1, 1], "padding": "same", "data_format": "channels_last", "dilation_rate": [1, 1], "activation": "linear", "use_bias": false, "kernel_initializer": {"class_name": "GlorotUniform", "config": {"seed": null}}, "bias_initializer": {"class_name": "Zeros", "config": {}}, "kernel_regularizer": null, "bias_regularizer": null, "activity_regularizer": null, "kernel_constraint": null, "bias_constraint": null}, "inbound_nodes": [["activation_560", 0, 0, {}]]}, {"name": "average_pooling2d_53", "class_name": "AveragePooling2D", "config": {"name": "average_pooling2d_53", "trainable": false, "dtype": "float32", "pool_size": [3, 3], "padding": "same", "strides": [1, 1], "data_format": "channels_last"}, "inbound_nodes": [["mixed9", 0, 0, {}]]}, {"name": "conv2d_555", "class_name": "Conv2D", "config": {"name": "conv2d_555", "trainable": false, "dtype": "float32", "filters": 320, "kernel_size": [1, 1], "strides": [1, 1], "padding": "same", "data_format": "channels_last", "dilation_rate": [1, 1], "activation": "linear", "use_bias": false, "kernel_initializer": {"class_name": "GlorotUniform", "config": {"seed": null}}, "bias_initializer": {"class_name": "Zeros", "config": {}}, "kernel_regularizer": null, "bias_regularizer": null, "activity_regularizer": null, "kernel_constraint": null, "bias_constraint": null}, "inbound_nodes": [["mixed9", 0, 0, {}]]}, {"name": "batch_normalization_v1_557", "class_name": "BatchNormalizationV1", "config": {"name": "batch_normalization_v1_557", "trainable": false, "dtype": "float32", "axis": [3], "momentum": 0.99, "epsilon": 0.001, "center": true, "scale": false, "beta_initializer": {"class_name": "Zeros", "config": {}}, "gamma_initializer": {"class_name": "Ones", "config": {}}, "moving_mean_initializer": {"class_name": "Zeros", "config": {}}, "moving_variance_initializer": {"class_name": "Ones", "config": {}}, "beta_regularizer": null, "gamma_regularizer": null, "beta_constraint": null, "gamma_constraint": null}, "inbound_nodes": [["conv2d_557", 0, 0, {}]]}, {"name": "batch_normalization_v1_558", "class_name": "BatchNormalizationV1", "config": {"name": "batch_normalization_v1_558", "trainable": false, "dtype": "float32", "axis": [3], "momentum": 0.99, "epsilon": 0.001, "center": true, "scale": false, "beta_initializer": {"class_name": "Zeros", "config": {}}, "gamma_initializer": {"class_name": "Ones", "config": {}}, "moving_mean_initializer": {"class_name": "Zeros", "config": {}}, "moving_variance_initializer": {"class_name": "Ones", "config": {}}, "beta_regularizer": null, "gamma_regularizer": null, "beta_constraint": null, "gamma_constraint": null}, "inbound_nodes": [["conv2d_558", 0, 0, {}]]}, {"name": "batch_normalization_v1_561", "class_name": "BatchNormalizationV1", "config": {"name": "batch_normalization_v1_561", "trainable": false, "dtype": "float32", "axis": [3], "momentum": 0.99, "epsilon": 0.001, "center": true, "scale": false, "beta_initializer": {"class_name": "Zeros", "config": {}}, "gamma_initializer": {"class_name": "Ones", "config": {}}, "moving_mean_initializer": {"class_name": "Zeros", "config": {}}, "moving_variance_initializer": {"class_name": "Ones", "config": {}}, "beta_regularizer": null, "gamma_regularizer": null, "beta_constraint": null, "gamma_constraint": null}, "inbound_nodes": [["conv2d_561", 0, 0, {}]]}, {"name": "batch_normalization_v1_562", "class_name": "BatchNormalizationV1", "config": {"name": "batch_normalization_v1_562", "trainable": false, "dtype": "float32", "axis": [3], "momentum": 0.99, "epsilon": 0.001, "center": true, "scale": false, "beta_initializer": {"class_name": "Zeros", "config": {}}, "gamma_initializer": {"class_name": "Ones", "config": {}}, "moving_mean_initializer": {"class_name": "Zeros", "config": {}}, "moving_variance_initializer": {"class_name": "Ones", "config": {}}, "beta_regularizer": null, "gamma_regularizer": null, "beta_constraint": null, "gamma_constraint": null}, "inbound_nodes": [["conv2d_562", 0, 0, {}]]}, {"name": "conv2d_563", "class_name": "Conv2D", "config": {"name": "conv2d_563", "trainable": false, "dtype": "float32", "filters": 192, "kernel_size": [1, 1], "strides": [1, 1], "padding": "same", "data_format": "channels_last", "dilation_rate": [1, 1], "activation": "linear", "use_bias": false, "kernel_initializer": {"class_name": "GlorotUniform", "config": {"seed": null}}, "bias_initializer": {"class_name": "Zeros", "config": {}}, "kernel_regularizer": null, "bias_regularizer": null, "activity_regularizer": null, "kernel_constraint": null, "bias_constraint": null}, "inbound_nodes": [["average_pooling2d_53", 0, 0, {}]]}, {"name": "batch_normalization_v1_555", "class_name": "BatchNormalizationV1", "config": {"name": "batch_normalization_v1_555", "trainable": false, "dtype": "float32", "axis": [3], "momentum": 0.99, "epsilon": 0.001, "center": true, "scale": false, "beta_initializer": {"class_name": "Zeros", "config": {}}, "gamma_initializer": {"class_name": "Ones", "config": {}}, "moving_mean_initializer": {"class_name": "Zeros", "config": {}}, "moving_variance_initializer": {"class_name": "Ones", "config": {}}, "beta_regularizer": null, "gamma_regularizer": null, "beta_constraint": null, "gamma_constraint": null}, "inbound_nodes": [["conv2d_555", 0, 0, {}]]}, {"name": "activation_557", "class_name": "Activation", "config": {"name": "activation_557", "trainable": false, "dtype": "float32", "activation": "relu"}, "inbound_nodes": [["batch_normalization_v1_557", 0, 0, {}]]}, {"name": "activation_558", "class_name": "Activation", "config": {"name": "activation_558", "trainable": false, "dtype": "float32", "activation": "relu"}, "inbound_nodes": [["batch_normalization_v1_558", 0, 0, {}]]}, {"name": "activation_561", "class_name": "Activation", "config": {"name": "activation_561", "trainable": false, "dtype": "float32", "activation": "relu"}, "inbound_nodes": [["batch_normalization_v1_561", 0, 0, {}]]}, {"name": "activation_562", "class_name": "Activation", "config": {"name": "activation_562", "trainable": false, "dtype": "float32", "activation": "relu"}, "inbound_nodes": [["batch_normalization_v1_562", 0, 0, {}]]}, {"name": "batch_normalization_v1_563", "class_name": "BatchNormalizationV1", "config": {"name": "batch_normalization_v1_563", "trainable": false, "dtype": "float32", "axis": [3], "momentum": 0.99, "epsilon": 0.001, "center": true, "scale": false, "beta_initializer": {"class_name": "Zeros", "config": {}}, "gamma_initializer": {"class_name": "Ones", "config": {}}, "moving_mean_initializer": {"class_name": "Zeros", "config": {}}, "moving_variance_initializer": {"class_name": "Ones", "config": {}}, "beta_regularizer": null, "gamma_regularizer": null, "beta_constraint": null, "gamma_constraint": null}, "inbound_nodes": [["conv2d_563", 0, 0, {}]]}, {"name": "activation_555", "class_name": "Activation", "config": {"name": "activation_555", "trainable": false, "dtype": "float32", "activation": "relu"}, "inbound_nodes": [["batch_normalization_v1_555", 0, 0, {}]]}, {"name": "mixed9_1", "class_name": "Concatenate", "config": {"name": "mixed9_1", "trainable": false, "dtype": "float32", "axis": 3}, "inbound_nodes": [[["activation_557", 0, 0, {}], ["activation_558", 0, 0, {}]]]}, {"name": "concatenate_11", "class_name": "Concatenate", "config": {"name": "concatenate_11", "trainable": false, "dtype": "float32", "axis": 3}, "inbound_nodes": [[["activation_561", 0, 0, {}], ["activation_562", 0, 0, {}]]]}, {"name": "activation_563", "class_name": "Activation", "config": {"name": "activation_563", "trainable": false, "dtype": "float32", "activation": "relu"}, "inbound_nodes": [["batch_normalization_v1_563", 0, 0, {}]]}, {"name": "mixed10", "class_name": "Concatenate", "config": {"name": "mixed10", "trainable": false, "dtype": "float32", "axis": 3}, "inbound_nodes": [[["activation_555", 0, 0, {}], ["mixed9_1", 0, 0, {}], ["concatenate_11", 0, 0, {}], ["activation_563", 0, 0, {}]]]}, {"name": "global_average_pooling2d_1", "class_name": "GlobalAveragePooling2D", "config": {"name": "global_average_pooling2d_1", "trainable": true, "dtype": "float32", "data_format": "channels_last"}, "inbound_nodes": [["mixed10", 0, 0, {}]]}, {"name": "dense", "class_name": "Dense", "config": {"name": "dense", "trainable": true, "dtype": "float32", "units": 1024, "activation": "relu", "use_bias": true, "kernel_initializer": {"class_name": "GlorotUniform", "config": {"seed": null}}, "bias_initializer": {"class_name": "Zeros", "config": {}}, "kernel_regularizer": null, "bias_regularizer": null, "activity_regularizer": null, "kernel_constraint": null, "bias_constraint": null}, "inbound_nodes": [["global_average_pooling2d_1", 0, 0, {}]]}, {"name": "dense_1", "class_name": "Dense", "config": {"name": "dense_1", "trainable": true, "dtype": "float32", "units": 17, "activation": "softmax", "use_bias": true, "kernel_initializer": {"class_name": "GlorotUniform", "config": {"seed": null}}, "bias_initializer": {"class_name": "Zeros", "config": {}}, "kernel_regularizer": null, "bias_regularizer": null, "activity_regularizer": null, "kernel_constraint": null, "bias_constraint": null}, "inbound_nodes": [["dense", 0, 0, {}]]}], "input_layers": ["input_6", 0, 0], "output_layers": ["dense_1", 0, 0]}, "keras_version": "2.2.4-tf", "backend": "tensorflow"}